lunar/checkpoints/model_10.pth (torch, 495346 bytes, 19 tensors)

shared_layers.0.0.weight f4 [256, 8]
0.11368433 -0.24292324 0.28742513 -0.11328498 -0.012308685 0.33304915 -0.01835634 0.031058101
-0.08283525 -0.00063490367 0.26084864 -0.31717762 0.25830293 -0.010671645 0.16442855 -0.26333615
0.33460006 0.30656192 -0.094499044 -0.05291178 0.31790236 -0.08629366 0.034619637 0.2848818
0.31317827 -0.016827231 0.29059526 -0.25455496 -0.22070393 -0.2659136 0.062927015 0.17733164
0.25629377 -0.28593147 0.15789938 0.07771152 -0.13818043 0.068231486 0.27263176 -0.17130527
-0.3091706 -0.09995172 0.0088600265 -0.010705627 -0.25597587 -0.05830733 0.06959346 -0.24915752
0.09110824 -0.018562734 -0.09478256 0.25161278 0.3194337 0.35012844 -0.057922952 -0.081548154
-0.2590527 0.07923896 0.23395625 -0.05588893 -0.17658998 0.055999503 -0.27832016 -0.10550186
0.2894508 0.060870804 -0.061938174 0.32394692 -0.30797333 -0.16511905 -0.03775633 -0.24896927
0.10794739 0.2945501 -0.29127944 0.35545048 -0.39124304 0.027379267 0.19695358 -0.03342722
-0.1662331 -0.010052732 0.12617259 -0.23072924 0.19242366 0.26075304 -0.13685696 -0.02757263
-0.21847387 0.31853247 0.014997702 -0.0048423526 0.10709679 0.17011829 0.120100506 0.03152523
-0.17784388 -0.043782756 0.081185944 -0.18214515 0.15683977 0.2859784 0.1743199 0.21911916
0.062844336 0.01968634 -0.17268094 0.31065118 0.36153775 -0.2797274 -0.030672967 0.24750322
-0.22992085 -0.3338534 0.27060223 -0.30479306 -0.045000385 0.0074527645 0.29246145 -0.21040119
-0.21481924 -0.21677369 -0.29197192 -0.21113397 0.33542642 0.16074954 0.12985533 -0.02044777
-0.12752555 -0.038252454 0.22424845 -0.16559482 0.043532684 0.20084696 -0.15773463 0.16806605
-0.34265682 0.048093893 0.1074305 0.14169341 0.040273428 0.13922653 -0.26929313 0.020342909
-0.06795647 -0.1691386 -0.20945081 -0.010675895 0.039628815 -0.22046936 0.060153935 0.21459733
-0.23746704 -0.29208437 -0.09574632 -0.20536067 -0.34447858 -0.17143762 0.09243485 0.31060728
0.2752247 0.25123665 0.19493549 -0.07476052 -0.35374492 0.16225156 -0.03827049 0.24547967
-0.3286342 0.26914454 -0.32146534 -0.3360594 0.12693548 -0.26827496 -0.03682583 -0.36001584
-0.34394094 -0.053422067 -0.24739955 0.10164631 -0.15173723 0.28268015 -0.20958658 0.23466754
0.12069339 0.1892563 -0.12693141 0.11757132 -0.33927897 0.25876647 0.15783192 0.2210832
0.2369106 -0.15991522 -0.18393964 0.0053904443 -0.2578075 0.0022141207 0.3037546 0.24090959
-0.3208489 0.22854033 0.3560716 0.19543083 -0.37298012 0.04005008 -0.11576529 0.24523054
-0.30076137 -0.35145068 0.3543716 0.19320554 0.121474296 -0.29373822 0.35802752 -0.23000126
-0.2786722 -0.3507657 -0.09714604 0.09823894 0.061161466 -0.0854798 -0.23244134 0.21888599
0.07265819 0.3277688 -0.25971073 0.06766808 -0.12229388 0.21393761 0.35101804 -0.21636672
-0.14174478 -0.10597692 0.1805092 0.14440061 -0.16065682 -0.15331583 0.27188244 -0.3588994
-0.19336155 0.24328299 0.15150078 0.29485723 -0.18440004 -0.23446259 0.31525648 -0.12871794
0.1432423 -0.07250333 -0.27028927 0.36028507 0.36128086 -0.027479826 0.24397364 0.14222312
00000000: 54d3 e83d dfc0 78be 6329 933e f501 e8bd
00000010: 5eaa 49bc 6b85 aa3e 0960 96bc 8f6d fe3c
00000020: 87a5 a9bd aa6f 26ba f48d 853e 1b65 a2be
00000030: 4840 843e 20d8 2ebc f55f 283e ffd3 86be
00000040: b350 ab3e aff5 9c3e b788 c1bd 06ba 58bd
00000050: 19c4 a23e bbba b0bd 52cd 0d3d 07dc 913e
00000060: e758 a03e 43d9 89bc e7c8 943e 0755 82be
00000070: 3600 62be d425 88be e1df 803d 6d96 353e
00000080: f038 833e 9c65 92be 60b0 213e 3827 9f3d
00000090: 2c7f 0dbe f3bc 8b3d 6496 8b3e a66a 2fbe
000000a0: 9c4b 9ebe 7db3 ccbd a529 113c a766 2fbc
000000b0: 450f 83be abd3 6ebd 0487 8e3d 2623 7fbe
000000c0: f596 ba3d e010 98bc 5c1d c2bd 64d3 803e
000000d0: d08c a33e 0944 b33e 9e40 6dbd b802 a7bd
000000e0: 8ea2 84be 0948 a23d 3a92 6f3e caeb 64bd
000000f0: 01d4 34be bc5f 653d fb7f 8ebe 5c11 d8bd
00000100: e532 943e aa53 793d e2b2 7dbd 5fdc a53e
00000110: aeae 9dbe f814 29be 62a6 1abd cdf1 7ebe
00000120: 8513 dd3d 45cf 963e 9422 95be 9bfd b53e
00000130: 0251 c8be 7c4a e03c 33ae 493e fbea 08bd
00000140: 0339 2abe 37b4 24bc 6333 013e 4944 6cbe
00000150: b50a 453e 6c81 853e 3b24 0cbe ffdf e1bc
00000160: 9db7 5fbe b016 a33e ecb8 753c 99ac 9ebb
00000170: 9055 db3d 7d33 2e3e 41f7 f53d 9920 013d
00000180: b51c 36be 8c55 33bd d144 a63d 4284 3abe
00000190: 9b9a 203e c36b 923e ea80 323e c660 603e
000001a0: 88b4 803d 3f45 a13c 46d3 30be ac0d 9f3e
000001b0: 7a1b b93e 6e38 8fbe e045 fbbc 7c71 7d3e
000001c0: 5f70 6bbe d5ee aabe 608c 8a3e d60d 9cbe
000001d0: 5352 38bd 5236 f43b 82bd 953e 6973 57be
000001e0: 93f9 5bbe ecf9 5dbe 587d 95be 8133 58be
000001f0: 03bd ab3e 879b 243e ccf8 043e 1582 a7bc
00000200: 0f96 02be 9bae 1cbd 63a1 653e b091 29be
00000210: 544f 323d d3aa 4d3e 3085 21be 8219 2c3e
00000220: b770 afbe 1afe 443d 8604 dc3d 1418 113e
00000230: c0f5 243d 6691 0e3e cae0 89be 2ca6 a63c
00000240: c32c 8bbd ab32 2dbe 467a 56be f3e9 2ebc
00000250: d351 223d b8c2 61be f963 763d 67bf 5b3e
00000260: 8f2a 73be 158c 95be a616 c4bd 114a 52be
00000270: 7f5f b0be 588d 2fbe 7c4e bd3d eb07 9f3e
00000280: 40ea 8c3e 17a2 803e 2b9d 473e 0b1c 99bd
00000290: 0e1e b5be 4625 263e 84c1 1cbd 065f 7b3e
000002a0: be42 a8be 50cd 893e 1b97 a4be fa0f acbe
000002b0: 60fb 013e 565b 89be aed6 16bd ff53 b8be
000002c0: 0719 b0be 19d1 5abd 4f56 7dbe f12b d03d
000002d0: 0161 1bbe 74bb 903e dd9d 56be b04c 703e
000002e0: 192e f73d 67cc 413e 4ffa 01be 3bc9 f03d
000002f0: f9b5 adbe 0a7d 843e b19e 213e a263 623e
00000300: b198 723e d1c0 23be ac5a 3cbe 53a2 b03b
00000310: 58ff 83be c81a 113b b985 9b3e 01b1 763e
00000320: 4f46 a4be 7a06 6a3e 044f b63e 051f 483e
00000330: 40f7 bebe 8d0b 243d 5a16 edbd b71d 7b3e
00000340: 65fd 99be 58f1 b3be 3270 b53e acd7 453e
00000350: 84c7 f83d db64 96be 624f b73e 7385 6bbe
00000360: 1fae 8ebe 9097 b3be 81f4 c6bd 7f31 c93d
00000370: 7284 7a3d 0910 afbd 1a05 6ebe a623 603e
00000380: d1cd 943d 50d1 a73e cef8 84be 9095 8a3d
00000390: 3775 fabd 7612 5b3e a3b8 b33e 3d8f 5dbe
000003a0: 8b25 11be 6d0a d9bd 67d7 383e c1dd 133e
000003b0: 3983 24be d3fe 1cbe 2d34 8b3e aac1 b7be
000003c0: 9200 46be 2d1f 793e 0523 1b3e 87f7 963e
000003d0: 5dd3 3cbe f616 70be 4c69 a13e a3ce 03be
000003e0: 1cae 123e a07c 94bd 5b63 8abe 4977 b83e
000003f0: cef9 b83e 5f1d e1bc 3ad4 793e f0a2 113e

shared_layers.0.0.bias f4 [256]
-0.15339604 0.069340855 0.24875136 0.3022921 -0.17436273 -0.050370075 0.122952566 -0.055553332
-0.28653532 0.17334986 0.043596316 -0.25529447 -0.19255535 -0.11178689 -0.14151572 0.019426871
0.31565067 -0.17411385 0.06792316 -0.32140568 0.18924126 -0.014099113 0.15755117 0.12101056
0.23132657 0.026923941 -0.039000966 -0.13256544 -0.18093501 -0.0736565 0.0699014 -0.1626149
-0.22714496 -0.33635426 -0.039931517 0.10081329 0.21980645 0.25614008 -0.062909015 0.021249996
-0.14675525 -0.0095421085 -0.1455414 0.31341323 -0.1667449 0.29442117 0.16118404 -0.21571384
0.057865858 0.21350786 0.21395056 -0.14879803 -0.15930015 -0.24164107 -0.028684026 0.08200353
0.220923 0.34038258 -0.24772808 -0.2957341 0.18826026 -0.30012953 -0.33092695 0.25371897
-0.0329915 0.04140454 -0.28705534 -0.27284503 -0.22567046 -0.21931073 0.30190414 -0.27604038
-0.212403 -0.28032756 0.19795588 -0.13264586 -0.09723743 0.11788945 0.19072136 -0.16068113
0.2423425 -0.0048960564 0.22456506 0.32462347 -0.15269136 0.2785036 -0.22648841 0.00034163272
-0.23635253 0.269213 0.3391782 0.06342248 -0.16579092 -0.028841523 -0.051962554 -0.32160628
0.1486137 0.2635405 -0.30792332 0.21754666 0.16335833 0.12586257 0.090026125 -0.10078804
0.07207604 0.27426285 0.24564694 -0.0064520026 -0.020613454 -0.23145564 0.29560176 -0.20874052
0.1320329 -0.051664528 -0.28479597 0.13256073 0.079955816 0.027756078 0.24162959 0.32853454
0.009465703 -0.05056349 0.32250804 0.08438928 0.06282874 0.12621658 0.264547 -0.33593208
-0.29263958 0.12385585 0.10505395 0.25611085 0.2887448 -0.17018162 0.2928525 -0.13073018
-0.076836705 -0.07685818 0.11230342 -0.2545497 -0.15575495 -0.15282479 -0.31282848 0.18239786
0.04183185 -0.13748504 0.1821405 0.124797605 0.2628524 0.04442249 0.18687105 0.15292245
0.30281255 0.032473665 0.27922538 0.16823825 -0.24172187 -0.23067975 0.0017436863 -0.18114498
0.058484517 0.2602087 -0.27044958 0.17076014 -0.09139128 -0.20781665 -0.04969125 0.2768675
0.25440553 0.223288 -0.32882842 -0.2327771 0.15584241 0.3178092 0.22403526 0.012080861
-0.1078254 -0.34709597 -0.092011124 -0.18888105 0.3467276 -0.3264889 -0.19385709 0.0975926
0.2735502 -0.29419056 0.11217651 -0.067818865 -0.22123094 -0.30729976 0.14171804 0.11018777
0.22961639 0.26164722 -0.093249284 -0.040753487 0.3143464 0.2391145 -0.13220838 0.028680762
0.09501751 0.01838149 -0.20185758 0.15805094 0.037014253 0.24849492 -0.24259654 0.20160834
-0.2578514 0.24627176 0.048185483 0.1701527 0.07516183 0.09822145 -0.28421742 0.012043852
-0.32769102 -0.06496417 -0.15289743 -0.06479355 -0.08454535 0.2844967 -0.25847793 0.09886658
-0.113297746 0.24623767 0.0978297 -0.17255051 0.19546722 0.1379974 0.18925984 -0.16695647
-0.16024186 -0.09431871 -0.28459588 -0.0010574614 -0.14051186 -0.19812076 -0.09373118 0.24119231
-0.08448809 -0.18594532 0.0014326287 -0.12547676 0.104040384 -0.22931959 -0.073486514 0.2245441
0.19028986 -0.29330295 -0.2358501 0.20883632 -0.32059965 -0.22853096 -0.20513186 -0.12298148
00000000: da13 1dbe 9402 8e3d adb8 7e3e 08c6 9a3e
00000010: 258c 32be da50 4ebd 8ece fb3d e48b 63bd
00000020: c2b4 92be a082 313e 0d92 323d f5b5 82be
00000030: 3b2d 45be 86f0 e4bd 7fe9 10be 1a25 9f3c
00000040: f79c a13e e74a 32be 4c1b 8b3d 498f a4be
00000050: 76c8 413e f7ff 66bc 1855 213e 62d4 f73d
00000060: dfe0 6c3e 998f dc3c 7abf 1fbd 3cbf 07be
00000070: 0747 39be 38d9 96bd 7728 8f3d 8584 26be
00000080: b098 68be a036 acbe 3b8f 23bd 3377 ce3d
00000090: f114 613e cb24 833e 71d6 80bd 7914 ae3c
000000a0: 0247 16be 8156 1cbc ce08 15be b377 a03e
000000b0: 2dbf 2abe 5fbe 963e 6e0d 253e 17e4 5cbe
000000c0: c004 6d3d cea1 5a3e db15 5b3e 835e 18be
000000d0: 941f 23be c270 77be c3fa eabc 77f1 a73d
000000e0: a439 623e a046 ae3e 6eac 7dbe 766a 97be
000000f0: 4cc7 403e 94aa 99be 426f a9be 74e7 813e
00000100: 1822 07bd cf97 293d ebf8 92be 58b2 8bbe
00000110: 2816 67be fe92 60be 2e93 9a3e 2a55 8dbe
00000120: 2c80 59be 1887 8fbe f2b4 4a3e 51d4 07be
00000130: 6b24 c7bd 0670 f13d 764c 433e 9889 24be
00000140: a228 783e 196f a0bb 62f4 653e 0c35 a63e
00000150: 205b 1cbe 0698 8e3e 94ec 67be 2b1d b339
00000160: 6606 72be 49d6 893e c4a8 ad3e a5e3 813d
00000170: 18c5 29be 0f45 ecbc b0d6 54bd 94a9 a4be
00000180: 312e 183e c8ee 863e 20a8 9dbe 8dc4 5e3e
00000190: 6847 273e 1ee2 003e 9e5f b83d f669 cebd
000001a0: 9a9c 933d 2e6c 8c3e df8a 7b3e 526b d3bb
000001b0: 8cdd a8bc b502 6dbe 1d59 973e 13c0 55be
000001c0: a233 073e 2f9e 53bd c7d0 91be 00be 073e
000001d0: e0bf a33d b760 e33c bf6d 773e ae35 a83e
000001e0: 0916 1b3c a91b 4fbd c61f a53e 49d4 ac3d
000001f0: 5bac 803d eb3e 013e b472 873e 4aff abbe
00000200: dbd4 95be 23a8 fd3d 8626 d73d f620 833e
00000210: 5cd6 933e 1744 2ebe c3f0 953e 22de 05be
00000220: 905c 9dbd d267 9dbd 56ff e53d 5754 82be
00000230: 3a7e 1fbe 1a7e 1cbe 0e2b a0be 81c6 3a3e
00000240: e057 2b3d e1c8 0cbe 0a83 3a3e e395 ff3d
00000250: 9794 863e 5bf4 353d 205b 3f3e b497 1c3e
00000260: 3f0a 9b3e 1b03 053d a1f6 8e3e a646 2c3e
00000270: f085 77be 5037 6cbe 678c e43a 127e 39be
00000280: 768d 6f3d 133a 853e 5e78 8abe bfdb 2e3e
00000290: 5a2b bbbd e3cd 54be 0d89 4bbd 94c1 8d3e
000002a0: 7141 823e 9ca5 643e 335c a8be 1f5d 6ebe
000002b0: 2795 1f3e e3b7 a23e 8069 653e ceee 453c
000002c0: 90d3 dcbd 90b6 b1be 5470 bcbd 096a 41be
000002d0: 4886 b13e 8e29 a7be 7982 46be a1de c73d
000002e0: c60e 8c3e 25a0 96be ccbc e53d 9ee4 8abd
000002f0: 5d8a 62be 6556 9dbe 891e 113e 20aa e13d
00000300: 8f20 6b3e a0f6 853e 7bf9 bebd 21ed 26bd
00000310: 03f2 a03e 6eda 743e a261 07be ebf3 ea3c
00000320: 8a98 c23d c794 963c c1b3 4ebe 1bd8 213e
00000330: 429c 173d 7475 7e3e 3a6b 78be 6b72 4e3e
00000340: 1905 84be aa2e 7c3e 245e 453d 823c 2e3e
00000350: 72ee 993d 5428 c93d f284 91be 9453 453c
00000360: 1ec7 a7be ef0b 85bd 2591 1cbe 7bb2 84bd
00000370: 1d26 adbd 8da9 913e 3857 84be 907a ca3d
00000380: a608 e8bd ba25 7c3e f05a c83d 15b1 30be
00000390: 8f28 483e 314f 0d3e 55cd 413e a3f6 2abe
000003a0: 7116 24be 2b2a c1bd 8db6 91be 849a 8aba
000003b0: 57e2 0fbe 2be0 4abe 22f6 bfbd 1efb 763e
000003c0: 1708 adbd 7368 3ebe 0bc7 bb3a fb7c 00be
000003d0: 2013 d53d c1d2 6abe 1980 96bd e3ee 653e
000003e0: 58db 423e ce2b 96be b082 71be 30d9 553e
000003f0: a325 a4be 0504 6abe 160e 52be b7dd fbbd

shared_layers.0.2.weight f4 [256, 256]
0.018505253 -0.03029367 0.050377984 -0.03636512 0.031175902 0.037219763 -0.009308482 -0.0436692
0.03130472 0.043441862 -0.0055486006 -0.028642198 -0.02115405 0.033719495 -0.022136794 -0.015445989
0.008624053 -0.011275239 -0.039150383 0.077638164 -0.029338703 -0.010758552 -0.053861924 -0.0068473946
-0.045388922 -0.012149165 0.03383045 -0.017464548 0.015215757 0.05078267 -0.07664056 -0.050546452
-0.040898256 -0.04281157 0.049360972 0.04204895 0.032644622 0.037219003 -0.017289994 0.005268098
0.010252893 -0.05441273 -0.054434534 0.043955695 -0.012206313 0.046493035 -0.032968145 0.05680537
0.03477697 0.03328967 0.01955834 -0.0060323304 -0.021272495 0.032222237 -0.019230064 -0.056874115
0.054762762 0.04484086 -0.032725826 -0.027016489 -0.005185105 -0.038702317 -0.0012999809 0.030771768
-0.038408663 0.023707645 -0.04989587 0.02146983 -0.055815075 0.019924432 0.041559648 -0.00019988489
0.040247634 -0.05211676 0.0034255963 0.03393147 -0.052684486 0.0068576196 -0.049944494 -0.050067626
0.038260825 0.012806074 0.013437983 0.06334985 -0.04584467 0.053873118 -0.035286766 -0.03858578
-0.010285578 -0.021548964 0.01920158 0.012188078 0.0923189 -0.017480591 -0.037632015 -0.043273896
0.00929589 0.032305215 0.077873275 0.04333015 -0.015837524 0.053661853 0.011315522 -0.03431061
0.044256434 0.054860633 0.046331707 -0.050846945 0.051685963 0.030924235 -0.060305912 -0.04397103
-0.06319098 0.07381536 -0.03485303 0.014453817 -0.035869807 0.04683514 0.03183643 0.010718102
0.017611606 0.04790602 0.014254519 -0.05320572 -0.040127076 0.0076025366 0.032250635 -0.06256982
-0.013370646 0.04163448 -0.020652447 0.02914769 -0.07177141 -0.038592394 0.06488348 -0.004743946
0.034513958 0.05005681 0.06286599 0.060478542 -0.053669695 -0.007035563 0.058240466 0.027225258
-0.030579671 -0.0128735015 0.05313427 -0.047728784 -0.024893727 -0.04749615 0.04191855 0.014157948
0.059383966 0.016650956 -0.04813978 -0.024444154 0.017344303 0.006959051 0.031134868 -0.06804459
-0.045997363 -0.023272792 -0.035311382 -0.020700825 -0.06543035 -0.013180538 0.054826915 0.045326866
-0.04657578 0.015287395 -0.01952659 -0.04885081 0.0021439504 0.023490546 -0.018080514 -0.04413653
-0.03230157 0.033730492 0.021232404 0.037832823 -0.045777205 0.05209492 -0.04111911 -0.029596902
-0.01843966 0.020642899 0.06846944 0.055073265 -0.042077694 -0.02803989 -0.0658294 -0.06159919
0.054391284 0.0075420314 0.071973465 -0.027193358 -0.0048232763 0.055071164 -0.080196485 0.027269453
-0.00040937093 0.017375978 0.03473103 -0.07126509 0.002635795 0.011840115 0.04149744 0.011455995
-0.0222069 -0.02663385 0.012476656 -0.028036442 -0.031640783 0.06863521 -0.047151916 0.026870089
-0.0003727418 0.060768474 -0.038499173 0.012637436 0.062361475 0.022565044 0.03952615 0.03950926
-0.08733248 -0.05865894 0.024961121 -0.021542773 0.051660873 0.07423445 -0.00501575 0.022624321
-0.015576386 -0.030422188 -0.055267587 -0.036586136 0.03626852 0.0011159182 -0.039896555 0.0710261
0.0355048 -0.034831643 -0.024565956 0.003714297 0.0074574137 0.019497162 0.05024311 0.05049331
-0.045299724 0.036302462 -0.062364727 -0.06163058 -0.02057111 -0.03470044 0.01843104 0.058306117
00000000: 5498 973c 6e2a f8bc 2559 4e3d 98f3 14bd
00000010: 9b64 ff3c c073 183d 9a82 18bc 7ade 32bd
00000020: 6139 003d 18f0 313d 09d1 b5bb 0ba3 eabc
00000030: 424b adbc 741d 0a3d 3958 b5bc 2c11 7dbc
00000040: e64b 0d3c c8bb 38bc 275c 20bd c200 9f3d
00000050: b857 f0bc a344 30bc 529e 5cbd 1c60 e0bb
00000060: bce9 39bd 4b0d 47bc cc91 0a3d d011 8fbc
00000070: 834b 793c 7d01 503d baf5 9cbd cc09 4fbd
00000080: ee84 27bd 2f5b 2fbd bb2e 4a3d 853b 2c3d
00000090: 5eb6 053d f472 183d bfa3 8dbc 02a0 ac3b
000000a0: c0fb 273c e2df 5ebd bff6 5ebd e30a 343d
000000b0: fdfc 47bc 7b6f 3e3d 9b09 07bd bfac 683d
000000c0: 4c72 0e3d c05a 083d d038 a03c dbaa c5bb
000000d0: a843 aebc 77fb 033d 5e88 9dbc d5f4 68bd
000000e0: eb4e 603d 0dab 373d 840b 06bd af51 ddbc
000000f0: d0e7 a9bb 5286 1ebd 1f64 aaba 1315 fc3c
00000100: 6752 1dbd 8936 c23c 9d5f 4cbd 7fe1 af3c
00000110: 599e 64bd 9038 a33c 733a 2a3d 3198 51b9
00000120: b4da 243d 6278 55bd f87f 603b bafb 0a3d
00000130: b0cb 57bd e2b5 e03b 9992 4cbd b613 4dbd
00000140: 62b7 1c3d 91d0 513c fc2a 5c3c 91bd 813d
00000150: 9fc7 3bbd 0faa 5c3d db88 10bd 1f0c 1ebd
00000160: d784 28bc 7487 b0bc a24c 9d3c 81b0 473c
00000170: b111 bd3d 7533 8fbc 0724 1abd f83f 31bd
00000180: ca4d 183c 7952 043d 067c 9f3d f57a 313d
00000190: b2bd 81bc 88cc 5b3d bd64 393c 4889 0cbd
000001a0: 3c46 353d 8bb5 603d 51c6 3d3d e344 50bd
000001b0: a9b4 533d d254 fd3c 5503 77bd f71a 34bd
000001c0: 466a 81bd 822c 973d 0dc2 0ebd b4cf 6c3c
000001d0: 38ec 12bd 34d6 3f3d eb66 023d fa9a 2f3c
000001e0: 3746 903c 1a39 443d c98b 693c 3eee 59bd
000001f0: 4a5c 24bd b31e f93b 3e19 043d 9b24 80bd
00000200: 8e10 5bbc eb88 2a3d 522f a9bc 23c7 ee3c
00000210: e4fc 92bd 0f13 1ebd a1e1 843d 1a73 9bbb
00000220: 825e 0d3d 5f08 4d3d e2bf 803d 59b8 773d
00000230: c1d4 5bbd 948a e6bb 8e8d 6e3d 8107 df3c
00000240: 3882 fabc 61eb 52bc 52a3 593d 427f 43bd
00000250: eeed cbbc 538b 42bd c9b2 2b3d bdf6 673c
00000260: 9a3c 733d 9667 883c 382e 45bd 1b3f c8bc
00000270: a415 8e3c c008 e43b 8d0e ff3c f65a 8bbd
00000280: bb67 3cbd 95a6 bebc aba2 10bd c794 a9bc
00000290: 5900 86bd 2ff3 57bc 3092 603d aaa8 393d
000002a0: 3fc6 3ebd fb77 7a3c 3af6 9fbc c917 48bd
000002b0: 8581 0c3b 3f6f c03c 961d 94bc 82c8 34bd
000002c0: a74e 04bd fc28 0a3d 94ef ad3c 97f6 1a3d
000002d0: e180 3bbd 7c61 553d 836c 28bd 3475 f2bc
000002e0: c50e 97bc 4c1b a93c b539 8c3d 8194 613d
000002f0: a959 2cbd e9b3 e5bc 91d1 86bd 6f4f 7cbd
00000300: 65c9 5e3d 2523 f73b d366 933d 9bc4 debc
00000310: 930c 9ebb 4d92 613d 0e3e a4bd 3064 df3c
00000320: d6a0 d6b9 1158 8e3c 2042 0e3d 6ef3 91bd
00000330: 4dbd 2c3b 0bfd 413c 38f9 293d edb1 3b3c
00000340: 3feb b5bc 3b2f dabc e36a 4c3c aeac e5bc
00000350: c499 01bd 9e90 8c3d 5e22 41bd a91e dc3c
00000360: 8f6c c3b9 5de8 783d 4fb1 1dbd 400d 4f3c
00000370: bf6e 7f3d 54da b83c 2ce6 213d 76d4 213d
00000380: 5fdb b2bd 5b44 70bd 447b cc3c 787a b0bc
00000390: 5a9a 533d 3b08 983d 295b a4bb a456 b93c
000003a0: 1934 7fbc f437 f9bc 4460 62bd 58db 15bd
000003b0: 4d8e 143d 0044 923a 926a 23bd 2276 913d
000003c0: 7b6d 113d a0ab 0ebd 8b3e c9bc 906b 733b
000003d0: 525d f43b 83b8 9f3c b8cb 4d3d 13d2 4e3d
000003e0: 348c 39bd e4b1 143d 2872 7fbd 5970 7cbd
000003f0: bf84 a8bc 0c22 0ebd b1fc 963c 65d2 6e3d

shared_layers.0.2.bias f4 [256]
-0.030494558 0.038154285 -0.030674625 -0.02257703 -0.03460503 -0.043744855 0.0045355386 0.007306347
0.034123186 0.0417777 0.03157622 0.0012071873 0.030995736 0.0010927916 -0.06827069 -0.027469965
-0.020710547 0.044240672 0.0025977169 0.0044949977 0.015492541 -0.01191027 -0.030346857 0.0009171362
0.0037811606 0.056570966 -0.018270511 0.047048505 0.03429411 -0.070043825 -0.037064232 -0.024684718
-0.01641208 -0.04572734 -0.002305648 0.016246986 -0.031390622 -0.03293345 -0.06453274 0.063089326
-0.04419119 0.057504073 0.026265204 0.01216721 -0.04272921 -0.019808633 -0.0713058 0.048093595
-0.03762046 0.012407169 0.04917838 -0.047334287 -0.0503908 0.018755533 0.01909544 -0.04365376
0.009907558 -0.029369853 -0.026546923 -0.014309365 0.010013373 -0.018090827 0.06127539 0.003485135
0.060321018 -0.021807447 0.03471983 0.007098802 0.042134356 -0.061722625 0.006165907 0.037002724
0.011089184 -0.018225417 0.01039689 -0.0028255063 0.0089638075 0.03598646 -0.008493016 0.023564368
-0.06267885 -0.043259222 0.05189197 -0.04220039 -0.049662367 0.037330616 -0.052966375 -0.011575188
-0.03876294 -0.035127103 -0.029252574 -0.05134352 0.030131502 -0.0029741812 0.016969146 -0.027865043
0.016216964 0.013258368 -0.008113591 -0.041682232 0.0027833236 0.01312079 -0.06336619 0.038292713
0.0071975095 -0.03155862 0.0031126996 0.0466672 -0.053357836 -0.019712314 0.0021044046 -0.027438099
0.017542139 0.012277775 -0.038983073 0.033343725 -0.029215742 -0.04876932 0.032605104 0.051286396
-0.02285684 0.0003258156 -0.047954984 0.0026175797 -0.015842414 0.036424913 -0.0443563 0.005511184
0.015619458 -0.038641322 0.019886829 0.022185579 0.006912367 -0.02874892 -0.01565264 0.006259496
-0.0039219405 -0.033813402 -0.06653283 0.0677806 0.049136788 0.028895078 -0.06551299 -0.04011344
-0.021955177 -0.0032873484 0.053275727 -0.04452954 0.0032934058 -0.012894888 0.049567934 0.03796785
0.06431085 0.0406723 -0.028237153 0.0057867384 -0.022600349 -0.053028096 -0.0120205395 0.04552731
0.0514802 -0.06337279 -0.0010676744 0.05136607 0.010076906 0.033999756 0.0034113978 0.018292421
0.044880535 0.05460155 -0.034951415 -0.03094996 0.0030784984 -0.044009894 0.009738718 0.01134478
0.017405024 0.017089214 -0.015419857 -0.045450382 0.037003163 0.039969005 0.04215622 0.019115878
0.045139935 0.032786995 0.036035553 -0.04421146 0.0025425716 -0.028129283 -0.048113905 0.029356532
-0.028403956 -0.04657744 0.024852114 0.017885305 0.027201865 0.03424652 0.038180348 -0.009927997
0.037767548 -0.006638646 0.01701895 -0.042294353 0.042896874 -0.05821205 -0.048751023 0.040490154
0.003166747 0.032509916 0.006971461 -0.037039302 -0.04262598 0.043916117 -0.07441096 -0.04416152
0.055821583 -0.010645196 -0.058894355 -0.03908477 0.019203037 0.030632589 0.030201936 0.026071604
0.020664582 -0.011242924 -0.047839306 -0.0067152125 -0.042997833 -0.017509714 -0.03005177 -0.045004357
-0.052564587 -0.014651991 0.029036961 0.044653244 0.063077845 -0.028714567 0.028771669 0.016293257
0.020401122 -0.017838033 0.02274506 0.0100279 0.026496857 0.03703353 0.027980631 0.06406499
-0.018401636 -0.03619627 -0.007033435 -0.046277523 -0.021072049 0.04118166 -0.019554213 -0.03563646
00000000: b9cf f9bc ab47 1c3d 5a49 fbbc 77f3 b8bc
00000010: 01be 0dbd ce2d 33bd db9e 943b 156a ef3b
00000020: c1c4 0b3d 181f 2b3d 1156 013d 7c3a 9e3a
00000030: c5ea fd3c 003c 8f3a 81d1 8bbd b108 e1bc
00000040: 2aa9 a9bc b535 353d 753e 2a3b c64a 933b
00000050: 6dd4 7d3c 4b23 43bc f999 f8bc f86b 703a
00000060: 59cd 773b f5b6 673d 0aac 95bc efb5 403d
00000070: fb77 0c3d 2373 8fbd aad0 17bd 9b37 cabc
00000080: a072 86bc 974c 3bbd 5b1a 17bb 6618 853c
00000090: 7493 00bd 3ae5 06bd be29 84bd fa34 813d
000000a0: d201 35bd 6489 6b3d 202a d73c fa58 473c
000000b0: d304 2fbd b745 a2bc c608 92bd cafd 443d
000000c0: e917 1abd 7047 4b3c 456f 493d 99e1 41bd
000000d0: 9566 4ebd 34a5 993c 0a6e 9c3c 49ce 32bd
000000e0: 4f53 223c 0c99 f0bc ef78 d9bc d471 6abc
000000f0: 210f 243c 3733 94bc e7fb 7a3d dd66 643b
00000100: 2c13 773d 88a5 b2bc 6136 0e3d 119d e83b
00000110: 1395 2c3d ddd0 7cbd 600b ca3b 2b90 173d
00000120: 69af 353c 784d 95bc b857 2a3c 212c 39bb
00000130: efdc 123c 8a66 133d 4a26 0bbc 100a c13c
00000140: c55d 80bd 9530 31bd ad8c 543d 51da 2cbd
00000150: c46a 4bbd fde7 183d 45f3 58bd dba5 3dbc
00000160: e3c5 1ebd 70e1 0fbd 18a3 efbc 954d 52bd
00000170: 57d6 f63c 7bea 42bb e102 8b3c 3b45 e4bc
00000180: 70d9 843c a039 593c deee 04bc fdba 2abd
00000190: 6c68 363b 95f8 563c 22c6 81bd d2d8 1c3d
000001a0: 16d9 eb3b 9d43 01bd 6ffe 4b3b 1b26 3f3d
000001b0: bf8d 5abd b87b a1bc 0dea 093b ddc5 e0bc
000001c0: 88b4 8f3c b928 493c b7ac 1fbd 6e93 083d
000001d0: da55 efbc 57c2 47bd ee8c 053d af11 523d
000001e0: 453e bbbc 3bd2 aa39 726c 44bd b38b 2b3b
000001f0: f3c7 81bc 4a32 153d f4ae 35bd 2a97 b43b
00000200: c1e8 7f3c 5d46 1ebd b4e9 a23c 88be b53c
00000210: 2381 e23b db82 ebbc f739 80bc 751c cd3b
00000220: 9f83 80bb ec7f 0abd 5d42 88bd 8ed0 8a3d
00000230: a843 493d 5fb5 ec3c ad2b 86bd fe4d 24bd
00000240: 58db b3bc 8e70 57bb a637 5a3d 9b64 36bd
00000250: 2ed6 573b 1545 53bc bf07 4b3d 2d84 1b3d
00000260: 68b5 833d ff97 263d 9a51 e7bc ae9e bd3b
00000270: 5e24 b9bc fd33 59bd ccf1 44bc d87a 3a3d
00000280: e7dc 523d 98c9 81bd 35f1 8bba 3a65 523d
00000290: 9b19 253c 5443 0b3d c291 5f3b fdd9 953c
000002a0: a7d4 373d e0a5 5f3d 3729 0fbd c58a fdbc
000002b0: a2c0 493b b843 34bd 258f 1f3c 75df 393c
000002c0: fb94 8e3c aefe 8b3c 91a3 7cbc 2e2a 3abd
000002d0: a190 173d 8ab6 233d 00ac 2c3d e798 9c3c
000002e0: a7e4 383d a84b 063d 049a 133d 1317 35bd
000002f0: 46a1 263b 626f e6bc 1613 45bd 1c7d f03c
00000300: 6aaf e8bc fcc7 3ebd a996 cb3c 3484 923c
00000310: 72d6 de3c 1446 0c3d ff62 1c3d 0aa9 22bc
00000320: 25b2 1a3d 0089 d9bb 536b 8b3c d83c 2dbd
00000330: a2b4 2f3d c26f 6ebd 27af 47bd 01d9 253d
00000340: 3389 4f3b 1e29 053d db70 e43b 86b6 17bd
00000350: 9498 2ebd 63e1 333d c664 98bd b6e2 34bd
00000360: 2ca5 643d 3069 2ebc 353b 71bd 5a17 20bd
00000370: b04f 9d3c 32f1 fa3c 0d6a f73c 1e94 d53c
00000380: c548 a93c 3e34 38bc 26f3 43bd 490b dcbb
00000390: 7f1e 30bd 8870 8fbc 212f f6bc 7d56 38bd
000003a0: f74d 57bd e80e 70bc ecde ed3c 52e6 363d
000003b0: f52e 813d d03a ebbc 90b2 eb3c 7079 853c
000003c0: 4120 a73c 1121 92bc d953 ba3c 104c 243c
000003d0: f00f d93c 79b0 173d a337 e53c 8134 833d
000003e0: 07bf 96bc 8a42 14bd bb78 e6bb 808d 3dbd
000003f0: 4a9f acbc 1aae 283d 2830 a0bc 89f7 11bd

shared_layers.0.4.weight f4 [128, 256]
0.024219047 -0.0337065 0.0414895 -0.002034732 -0.05580284 -0.012223504 -0.03613557 0.024151027
0.035842 0.010087543 0.039969012 -0.014287107 -0.0028574134 0.06196633 0.052839413 0.009453258
-0.02766605 0.0016674759 0.012220895 -0.018931637 0.04483841 -0.040795054 -0.062088594 -0.05959582
-0.05811234 -0.06700988 -0.029768372 -0.048599504 -0.035471566 -0.03785954 -0.05481508 0.016214237
0.013222663 0.06082984 -0.062616825 -0.018696869 -0.037602022 0.035189357 -0.015483066 0.031875238
0.04361991 -0.06111904 0.046444356 0.031237071 -0.04282968 -0.006799671 -0.063893445 -0.063457765
0.049092248 -0.030596731 0.04461938 -0.01857093 -0.014614477 0.04869821 0.029906623 0.020513091
-0.026708305 -0.016133592 -0.0011692146 0.0012742324 -0.05950085 -0.065024555 -0.0708625 0.012153484
0.030227127 -0.010356651 0.022845594 0.01679022 -0.038881373 -0.057658195 0.04549388 0.04072945
-0.061723925 -0.059696306 -0.031257275 0.045599297 0.036204267 -0.02524643 0.058997616 0.04305692
-0.03394642 -0.00577764 -0.05319687 -0.008589156 -0.008286658 0.007481955 0.05968691 -0.05333222
0.03412777 0.02625186 -0.011983119 -0.030095281 -0.06352768 -0.017194945 0.011847794 -0.0067002084
-0.03083967 -0.03189915 -0.049769536 0.0049874834 0.02995287 -0.054789133 0.026394872 0.010129681
-0.05154484 0.019911608 0.013869528 -0.00980705 0.020331005 -0.058031604 -0.009803583 -0.03162694
-0.0252579 -0.028359437 -0.0047791097 -0.028782971 0.06007364 -0.0062681073 0.0026109666 0.0131264925
0.029713996 -0.0016587335 -0.010649409 -0.050316345 0.027326163 -0.015307856 0.012032707 -0.060350515
0.001835091 -0.024857894 -0.013596421 0.047220398 -0.025540698 0.05569902 0.033572245 -0.051946126
0.047630567 -0.040459312 0.050248608 -0.045708206 -0.027499732 0.021292362 -0.03969594 0.007609446
-0.049102914 0.008334659 -0.044788186 0.015253468 -0.018593607 0.036161434 0.028941158 0.057482645
0.034095414 0.03004162 0.025661157 0.0072343303 0.004941725 -0.034333333 0.042869058 0.056533795
-0.008168962 -0.057265464 0.01482621 0.010653453 -0.039105337 -0.06168224 -0.030856494 0.0059903036
0.04060717 -0.02975964 0.044684444 -0.007871493 -0.024850855 -0.03946045 0.019011008 -0.03581177
-0.015763326 0.041292705 -0.0008660472 -0.04525007 0.056844827 0.0052403617 0.027239576 -0.010161524
0.009742955 0.05497404 -0.04380521 0.016067654 0.00086927874 -0.015737232 0.038550958 -0.029168265
-0.043202184 -0.035615053 -0.00095116376 -0.03351959 -0.03635625 -0.008935547 0.03676867 0.036550533
-0.01815139 0.0011234507 0.0045549255 -0.033277754 0.04698471 0.060951456 -0.046698365 0.012379231
0.032747943 -0.0038554932 -0.020725822 -0.0041732066 -0.036354437 0.05077842 -0.004295821 0.014171837
-0.041652184 0.034865446 0.029187115 0.028883435 0.0029574526 -0.0067611816 0.016595975 -0.023920352
-0.05353294 -0.061379578 -0.047456753 0.017186346 -0.031409223 0.052707274 -0.024543218 -0.05970062
0.013641465 -0.013765405 0.04968144 -0.020468771 -0.03747024 -0.024777798 0.03765019 0.017012578
-0.059661984 -0.013345483 0.036490228 -0.0503677 -0.005152198 -0.030111764 0.027968943 -0.064621754
0.046852518 0.036652528 0.055752315 -0.010534912 -0.057191294 -0.07132489 0.013530447 0.0036982123
00000000: 0667 c63c d40f 0abd e5f0 293d 2359 05bb
00000010: 8591 64bd 1745 48bc e402 14bd 60d8 c53c
00000020: 10cf 123d 3946 253c 8cb6 233d 7814 6abc
00000030: 7143 3bbb 68d0 7d3d 246e 583d d6e1 1a3c
00000040: e9a3 e2bc 358f da3a 263a 483c 8516 9bbc
00000050: 7ba8 373d b718 27bd 9c50 7ebd bf1a 74bd
00000060: 3407 6ebd 7a3c 89bd cddc f3bc 4610 47bd
00000070: a24a 11bd 9b12 1bbd c785 60bd b8d3 843c
00000080: dea3 583c b628 793d 403d 80bd 2d2a 99bc
00000090: 9404 1abd b722 103d b0ac 7dbc 9c8f 023d
000000a0: caaa 323d f557 7abd 703c 3e3d e3e4 ff3c
000000b0: 2d6e 2fbd c6cf debb 91da 82bd 25f6 81bd
000000c0: f414 493d ffa5 fabc d0c2 363d 1022 98bc
000000d0: 8f71 6fbc c677 473d bcfe f43c 120b a83c
000000e0: 60cb dabc 982a 84bc 5540 99ba 2504 a73a
000000f0: 2ab7 73bd 982b 85bd 5c20 91bd 681f 473c
00000100: e19e f73c f1ae 29bc af26 bb3c a58b 893c
00000110: 1342 1fbd 002b 6cbd ca57 3a3d ecd3 263d
00000120: 3ad2 7cbd 1d84 74bd a107 00bd 54c6 3a3d
00000130: ed4a 143d 9ad1 cebc 7ca7 713d 745c 303d
00000140: 670b 0bbd 5b52 bdbb f6e4 59bd 88b9 0cbc
00000150: c3c4 07bc 302b f53b 437a 743d e372 5abd
00000160: 90c9 0b3d 240e d73c d854 44bc 618a f6bc
00000170: cd1a 82bd 6adc 8cbc 401d 423c 6c8d dbbb
00000180: 7aa3 fcbc afa8 02bd 24db 4bbd 0b6e a33b
00000190: b95f f53c 926a 60bd 0f3a d83c f6f6 253c
000001a0: af20 53bd ab1d a33c 043d 633c c0ad 20bc
000001b0: 358d a63c 8cb2 6dbd 359f 20bc 408b 01bd
000001c0: a8e9 cebc 0d52 e8bc 149a 9cbb 44ca ebbc
000001d0: c70f 763d b264 cdbb c01c 2b3b 8010 573c
000001e0: c46a f33c dc69 d9ba dc7a 2ebc 8318 4ebd
000001f0: 1edb df3c cdcd 7abc d524 453c 1a32 77bd
00000200: 7087 f03a c8a2 cbbc 86c3 5ebc 2d6a 413d
00000210: ba3a d1bc a824 643d 0d83 093d 76c5 54bd
00000220: 4518 433d aab8 25bd 7cd1 4d3d 8738 3bbd
00000230: 1e47 e1bc 526d ae3c 3698 22bd a958 f93b
00000240: 2320 49bd 188e 083c d173 37bd afe9 793c
00000250: 9f51 98bc 031e 143d 0216 ed3c ec72 6b3d
00000260: a2a7 0b3d d819 f63c 5937 d23c f60d ed3b
00000270: 32ee a13b 1ca1 0cbd 7797 2f3d fb8f 673d
00000280: 1cd7 05bc 318f 6abd a2e9 723c d28b 2e3c
00000290: eb2c 20bd 84a6 7cbd c2c6 fcbc 4f4a c43b
000002a0: b453 263d 7dca f3bc 0907 373d 6ff7 00bc
000002b0: 0594 cbbc 48a1 21bd f9bc 9b3c 5daf 12bd
000002c0: 1722 81bc 8a22 293d 7207 63ba 2358 39bd
000002d0: 1fd6 683d 57b7 ab3b 8825 df3c 857c 26bc
000002e0: eaa0 1f3c 752c 613d 186d 33bd 50a0 833c
000002f0: 4fe0 633a 5eeb 80bc 9ce7 1d3d 49f2 eebc
00000300: c6f4 30bd 17e1 11bd 8557 79ba d64b 09bd
00000310: 4bea 14bd 6766 12bc bf9a 163d 03b6 153d
00000320: 39b2 94bc c040 933a 7c41 953b 414e 08bd
00000330: 0a73 403d 3ca8 793d c946 3fbd 42d2 4a3c
00000340: b522 063d 71ac 7cbb 33c9 a9bc 65bf 88bb
00000350: 64e8 14bd 08fd 4f3d f5c3 8cbb fe30 683c
00000360: 7b9b 2abd 12cf 0e3d d119 ef3c f49c ec3c
00000370: d2d1 413b e78c ddbb 48f4 873c 9df4 c3bc
00000380: 5b45 5bbd 2769 7bbd 0362 42bd 61ca 8c3c
00000390: f5a6 00bd 95e3 573d dc0e c9bc a388 74bd
000003a0: 7480 5f3c 4b88 61bc c47e 4b3d 20ae a7bc
000003b0: 657a 19bd cffa cabc 1637 1a3d f65d 8b3c
000003c0: 2060 74bd 03a7 5abc c776 153d 5d4e 4ebd
000003d0: c5d3 a8bb f2ac f6bc 201f e53c 6958 84bd
000003e0: 6de8 3f3d f620 163d 8a5c 643d a09a 2cbc
000003f0: 6b41 6abd c912 92bd cfae 5d3c b55d 723b

shared_layers.0.4.bias f4 [128]
0.027392982 -0.055006176 0.052587766 0.006684045 -0.027219964 -0.019403892 -0.05082868 -0.033461638
-0.020090478 0.05560579 0.03707263 0.043679096 -0.052018944 0.05412692 0.016811991 0.0344233
0.054592073 0.03511937 -0.027002681 -0.06353235 -0.034747984 -0.061293572 -0.008710504 -0.01255474
0.038665716 0.020888355 -0.03963279 -0.03210532 0.0030366946 0.026393946 -0.0064956658 -0.044277433
0.004606611 0.016618587 0.049945194 0.057509318 -0.025841443 -0.0378185 -0.0048295083 -0.04541535
-0.019373436 -0.04415012 0.04559708 -0.054174487 -0.0053672423 -0.04100066 0.056982785 -0.05232222
0.053756446 0.016649215 -0.01857023 0.042182103 0.051491037 -0.03301578 -0.021607116 -0.010942973
-0.026648935 -0.027344434 -0.01549471 0.025361976 0.03038353 0.030037377 0.029542502 -0.03391974
-0.054204054 0.045093663 0.036869314 -0.03003789 -0.014524943 0.021121765 0.03446091 0.027406406
0.020820118 0.050642 0.02347873 0.049055543 -0.040819425 0.015550362 -0.037403587 -0.04151363
-0.042858448 0.0379063 0.040533803 0.048280966 0.025045434 0.031610217 0.038906634 -0.014451811
-0.009536963 0.037192952 -0.062659964 -0.025247904 -0.036512367 0.047469717 -0.021615053 -0.020103289
8.061734e-06 -0.052963138 -0.0072648632 0.025905473 0.038454913 -0.026368156 -0.03532594 -0.009905205
-0.03520544 0.0221895 -0.04248695 -0.019150533 -0.013700226 0.0019499109 -0.01568857 -0.054971855
-0.04529394 -0.023828534 0.054016206 -0.009076504 0.036483422 0.052885536 -0.05755332 -0.013600355
0.02065568 -0.02510813 0.007969809 -0.054313526 0.029301398 -0.039647833 0.013255127 0.04672698
00000000: 3f67 e03c 284e 61bd 4566 573d d505 db3b
00000010: 67fc debc e9f4 9ebc bc31 50bd 120f 09bd
00000020: c994 a4bc e6c2 633d 78d9 173d dae8 323d
00000030: d111 55bd 30b4 5d3d 4db9 893c 72ff 0c3d
00000040: f09b 5f3d 54d9 0f3d ba34 ddbc 401d 82bd
00000050: e753 0ebd f80e 7bbd 80b6 0ebc 65b2 4dbc
00000060: f15f 1e3d 0e1e ab3c fe55 22bd de80 03bd
00000070: 4803 473b 1e38 d83c 98d9 d4bb 415c 35bd
00000080: 0ef3 963b b423 883c 5593 4c3d e48e 6b3d
00000090: 6fb1 d3bc 92e7 1abd da40 9ebb 7205 3abd
000000a0: 0ab5 9ebc c2d6 34bd 01c4 3a3d 11e6 5dbd
000000b0: b1df afbb 4ff0 27bd c866 693d d34f 56bd
000000c0: b82f 5c3d ef63 883c 9820 98bc 24c7 2c3d
000000d0: 44e8 523d 8e3b 07bd 6801 b1bc 284a 33bc
000000e0: de4e dabc 6f01 e0bc 86dd 7dbc ebc3 cf3c
000000f0: e1e6 f83c f210 f63c 1e03 f23c 6def 0abd
00000100: 1205 5ebd 22b4 383d 4704 173d 0512 f6bc
00000110: 07fa 6dbc 8d07 ad3c e226 0d3d 6683 e03c
00000120: f48e aa3c fc6d 4f3d 7756 c03c 77ee 483d
00000130: 4532 27bd f2c6 7e3c 8134 19bd 320a 2abd
00000140: 578c 2fbd a343 1b3d c606 263d 43c2 453d
00000150: 152c cd3c b779 013d 905c 1f3d 4ac7 6cbc
00000160: ec40 1cbc a357 183d de53 80bd b1d4 cebc
00000170: fe8d 15bd 9b6f 423d 0d12 b1bc a7af a4bc
00000180: e240 0737 e0ef 58bd 170e eebb b737 d43c
00000190: e682 1d3d 0802 d8bc efb1 10bd 7149 22bc
000001a0: 9433 10bd c1c6 b53c cc06 2ebd 94e1 9cbc
000001b0: ea76 60bc 2794 ff3a 5185 80bc 2b2a 61bd
000001c0: 2386 39bd 0f34 c3bc 1940 5d3d 9eb5 14bc
000001d0: a46f 153d 819e 583d 08bd 6bbd 06d4 5ebc
000001e0: 1a36 a93c 91af cdbc cd93 023c dc77 5ebd
000001f0: 7c09 f03c c465 22bd 082c 593c ca64 3f3d

shared_layers.1.weight f4 [128]
1.0092595 1.0516543 1.0162253 1.0161535 1.0354086 1.0321352 1.0399228 1.0104603
1.0295501 1.0050712 1.0326504 1.0166771 1.0138311 1.0266223 1.0091729 1.0010206
1.0008018 1.0274649 1.0218335 1.0538746 1.0269899 1.0234903 1.0421855 1.0338066
1.0091745 1.0059631 1.0018314 1.0012482 1.0425032 1.010797 1.0341057 1.0267869
1.0242212 1.0316277 1.0130754 1.0292699 1.0141867 1.0335929 1.0143954 1.0201237
1.0097399 1.0140933 1.0162867 1.0230273 0.98377424 1.0269507 1.0360576 1.0340357
1.0290655 1.0367575 1.0188198 1.027333 1.0358105 0.9912705 1.0387336 1.0233938
1.0144429 1.0250884 1.0673372 1.0328028 1.02393 1.0184115 1.0414486 1.0247306
1.0302058 1.0240619 1.0262821 1.0227066 1.0180123 1.0609934 1.0328945 1.0170234
1.0420566 1.044795 1.0167387 1.0194465 1.0042591 1.0306339 1.0153253 1.0349278
0.99481446 1.0270207 1.0345901 1.0004115 1.0362514 1.0345396 1.0094352 1.029943
1.0375372 1.0219834 1.0165085 1.038767 1.0158508 1.0148401 1.0192182 1.0463789
1.0384707 1.0197914 1.018797 1.0155265 1.0336692 1.0237219 1.0024974 1.0181849
1.0026194 1.0253289 1.0139284 1.0274445 1.0232745 1.0182605 1.0146393 1.0138508
1.0213298 1.0109305 1.0178114 1.010323 1.0542083 1.0356435 1.0270071 1.024355
1.0153421 1.0259619 1.0329236 1.0134771 1.0202706 1.042096 1.0174052 1.0038444
00000000: 6a2f 813f 9c9c 863f ac13 823f 5111 823f
00000010: 4588 843f 021d 843f 311c 853f c356 813f
00000020: 4cc8 833f 2ca6 803f e32d 843f 7a22 823f
00000030: 38c5 813f 5c68 833f 942c 813f 7121 803f
00000040: 461a 803f f883 833f 71cb 823f 5de5 863f
00000050: 6874 833f bb01 833f 5666 853f c653 843f
00000060: a12c 813f 66c3 803f 033c 803f e728 803f
00000070: bf70 853f cc61 813f 935d 843f c16d 833f
00000080: ae19 833f 600c 843f 74ac 813f 1ebf 833f
00000090: dfd0 813f c64c 843f b5d7 813f 6a93 823f
000000a0: 283f 813f cfcd 813f af15 823f 8ff2 823f
000000b0: a1d8 7b3f 1f73 833f 899d 843f 485b 843f
000000c0: 6bb8 833f 78b4 843f b068 823f a67f 833f
000000d0: 7095 843f e7c3 7d3f 39f5 843f 91fe 823f
000000e0: 44d9 813f 1936 833f 819e 883f e232 843f
000000f0: 2310 833f 4f5b 823f 304e 853f 5f2a 833f
00000100: c9dd 833f 7614 833f 365d 833f 0de8 823f
00000110: 3a4e 823f a2ce 873f e335 843f d32d 823f
00000120: 1c62 853f d8bb 853f 7e24 823f 397d 823f
00000130: 908b 803f d0eb 833f 2ef6 813f 8478 843f
00000140: 29ac 7e3f 6a75 833f 736d 843f 7c0d 803f
00000150: e3a3 843f cb6b 843f 2c35 813f 2cd5 833f
00000160: 05ce 843f 5ad0 823f f31c 823f 51f6 843f
00000170: 6607 823f 48e6 813f be75 823f beef 853f
00000180: 9cec 843f 8688 823f f167 823f c6fc 813f
00000190: 464f 843f 5209 833f d651 803f e253 823f
000001a0: d555 803f fa3d 833f 68c8 813f 4d83 833f
000001b0: a9fa 823f 5c56 823f b3df 813f ddc5 813f
000001c0: efba 823f 2c66 813f a547 823f 4452 813f
000001d0: 4cf0 863f f78f 843f f874 833f 111e 833f
000001e0: bbf6 813f b852 833f d736 843f 9eb9 813f
000001f0: 3a98 823f 6763 853f 553a 823f f97d 803f

shared_layers.1.bias f4 [128]
-0.009885699 0.001277643 0.016458217 0.0018851631 -0.03985831 0.015981596 0.02249412 -0.010454868
-0.030184275 -0.001948889 0.006230807 0.0082224235 0.0036859831 0.0046794643 -0.013864052 -0.0032731825
0.012537632 -0.015564729 -0.022743687 0.014811886 -0.023465913 0.012521947 -0.011821668 0.011867401
-0.0048077162 0.0024626341 -0.0070119 -0.0008680997 0.015853327 0.015179546 -0.0016778504 -0.028157396
-0.009569555 0.017962841 0.013733261 -0.012313368 -0.011994919 -0.02428358 0.01841298 -0.02095788
0.013590024 0.011137735 -0.016419983 -0.029282762 0.0229049 0.016200135 0.013488856 -0.033835135
0.0056990883 0.02790424 -0.0017969634 0.011362057 0.0026406436 0.00812242 0.025668504 0.011861909
-0.01780185 -0.007971801 0.014776426 -0.03289823 0.016118502 0.00048319416 -0.036968835 -0.025333745
-0.02390578 -0.0057826643 0.0101140505 0.011898855 -0.0009782582 -0.04548151 -0.004973821 -0.013488441
-0.032357406 -0.044157255 0.005055751 -0.014743137 -0.004420346 -0.005457603 -0.017821634 -0.03606527
0.0059172665 0.011977808 -0.027046248 -0.0012775415 0.034969576 -0.029870356 -0.009739174 -0.009128889
-0.011859868 -0.019252893 -0.016271582 -0.022651536 -0.014813732 0.0045758924 -0.014587842 -0.036326703
-0.011328278 -0.02029736 -0.003457095 0.013431691 -0.005961356 -0.025000896 -0.003017359 0.011843977
0.0082317125 0.02877403 -0.010780337 -0.0024397247 0.01841518 -0.018819008 -0.027493697 -0.014398317
0.029185925 -0.004325978 0.023011364 0.024326403 -0.02621305 0.02392267 -0.028429579 -0.009357486
0.024562104 -0.0047504585 -0.036097694 0.019330043 0.012887385 -0.0032067036 0.0053953594 0.01110376
00000000: a0f7 21bc 9676 a73a 62d3 863c 9417 f73a
00000010: 7842 23bd d6eb 823c 9745 b83c e54a 2bbc
00000020: 0345 f7bc dd71 ffba cc2b cc3b 58b7 063c
00000030: 8990 713b 3156 993b 0c26 63bc e482 56bb
00000040: a46a 4d3c 3503 7fbc f850 babc 8dad 723c
00000050: 963b c0bc da28 4d3c abaf 41bc 7d6f 423c
00000060: 0c8a 9dbb 2564 213b 15c4 e5bb 2f91 63ba
00000070: d6de 813c a1b3 783c 51eb dbba 57aa e6bc
00000080: 9fc9 1cbc cf26 933c 7901 613c 02be 49bc
00000090: 5686 44bc 5cee c6bc d1d6 963c dcaf abbc
000000a0: b1a8 5e3c 0c7b 363c 3383 86bc 67e2 efbc
000000b0: 0fa3 bb3c 25b6 843c 5d00 5d3c b696 0abd
000000c0: 6bbf ba3b 6f97 e43c 1688 ebba ec27 3a3c
000000d0: a60e 2d3b e613 053c c146 d23c 7458 423c
000000e0: 2fd5 91bc 289c 02bc d318 723c 4bc0 06bd
000000f0: f30a 843c 3955 fd39 a26c 17bd b788 cfbc
00000100: 0ed6 c3bc 817c bdbb 67b5 253c 6af3 423c
00000110: e638 80ba d24a 3abd 6ffb a2bb 9ffe 5cbc
00000120: 3389 04bd 3dde 34bd b7aa a53b 338d 71bc
00000130: 8dd8 90bb b1d5 b2bb adfe 91bc 2db9 13bd
00000140: a1e5 c13b 913e 443c 1890 ddbc 2e73 a7ba
00000150: 423c 0f3d adb2 f4bc 0e91 1fbc 5691 15bc
00000160: e44f 42bc 3eb8 9dbc fb4b 85bc b78f b9bc
00000170: 4cb5 72bc 5ef1 953b d801 6fbc 4fcb 14bd
00000180: 3e9a 39bc a646 a6bc 6e90 62bb 9810 5c3c
00000190: 7b57 c3bb aece ccbc e2be 45bb 3d0d 423c
000001a0: 4ede 063c 84b7 eb3c 03a0 30bc cae3 1fbb
000001b0: 6edb 963c 522a 9abc 763a e1bc ebe6 6bbc
000001c0: 5217 ef3c efc0 8dbb 5482 bc3c 2a48 c73c
000001d0: c0bc d6bc 7af9 c33c 26e5 e8bc 2450 19bc
000001e0: 7736 c93c bca9 9bbb 2ddb 13bd 0a5a 9e3c
000001f0: 9c25 533c 8f27 52bb 8ecb b03b 8cec 353c

policy_layers.0.weight f4 [64, 128]
0.057587396 -0.0009046587 -0.0074550086 -0.04412568 -0.044269204 -0.0034934464 0.012832196 0.012522522
0.05673359 -0.045035597 -0.017914506 0.011434754 -0.059047095 -0.07621493 -0.034429066 0.05461069
0.08369449 -0.09164331 0.02141995 -0.03437646 0.089150235 0.08983858 -0.09249224 -0.038233906
-0.005854127 0.0352041 -0.068188 0.062924944 -0.0026110106 -0.087269895 -0.0896405 -0.08905786
-0.03097931 -0.015095833 0.0047679534 0.05867573 0.027140735 -0.08078614 -0.075821795 0.076591685
-0.058973853 -0.011009824 -0.09116477 -0.028550524 -0.06383617 0.07426886 0.05341831 0.07410983
-0.02072033 0.053167246 -0.046243913 0.092333384 -0.04374389 -0.0021858788 -0.067235604 0.04437968
0.059558857 -0.045906506 -0.053912725 -0.015701028 -0.06590388 0.06957284 0.06879498 -0.086184114
0.06141515 -0.016968098 -0.009373396 0.0138657745 -0.016295932 -0.0626895 0.021831201 0.0126775205
-0.04969011 -0.0847425 0.010592206 -0.0025770068 0.071533866 -0.05108186 -0.007056974 0.015706526
0.08251362 0.020106466 0.07411019 -0.0908085 0.0045146695 -0.048431113 0.023780951 -0.04149289
0.02568972 -0.010938603 0.045415577 -0.08812634 -0.028786141 0.014922151 0.010315075 -0.05867945
0.060980514 0.07310881 -0.03774972 0.04926068 0.07399738 0.03433499 -0.036801204 -0.063319124
-0.004939453 0.06766336 -0.016670961 0.089268535 0.08073428 0.029356249 -0.048723165 -0.070537806
0.09131593 -0.0044576237 -0.0044246963 0.090550505 0.027736122 -0.024588317 0.048360668 0.06299571
-0.082792334 0.056552965 -0.0211822 -0.0005840772 0.0031936113 -0.10012613 0.07211241 0.041660115
0.08487387 0.016598612 -0.032003567 -0.030278489 0.080636986 0.02641262 0.08538163 0.033939466
-0.00037474153 -0.016881034 0.019161614 0.08044904 0.028374337 -0.02956782 -0.044081222 0.08387823
0.04328577 -0.07457364 -0.029872863 0.028116666 -0.013164421 -0.09480596 0.08129747 -0.0170414
-0.022660844 -0.07904913 0.04560976 0.028555308 -0.06564388 0.027108133 -0.038292196 0.0054892018
0.09118356 -0.0014478111 0.08397512 -0.00685169 0.05685282 0.06030011 0.012112143 0.026346728
-0.08126774 0.06032995 -0.036012396 -0.048976522 0.01440407 -0.09636806 0.06716453 0.059560142
0.078395724 0.068860374 0.023536343 0.037418723 0.026723435 0.055319976 0.021452017 -0.019896735
0.03837228 -0.019235956 -0.06935546 0.029736228 -0.007310145 -0.0644967 -0.06126936 0.04834446
-0.018878717 0.0027317503 -0.030495357 -0.03154248 -0.032143835 -0.04456516 0.04225793 -0.08549586
0.04995995 -0.053987674 0.0044045746 -0.0050428845 0.008474628 0.04479265 0.08918644 0.033435103
-0.045239087 0.067543924 -0.020170812 0.06462096 -0.008547368 0.016554832 -0.023796516 0.011215754
-0.035689015 -0.07424731 -0.08214369 -0.025385736 -0.07239095 0.07969137 0.07513245 -0.028050397
0.02727868 0.07558204 -0.064682856 0.06915983 -0.000109606386 0.040217116 -0.025783747 0.053121507
-0.07085646 0.06726932 -0.028378332 -0.061126996 -0.037366305 0.023394873 0.03257282 0.07031486
-0.023876173 -0.028373858 -0.015950365 -0.02833675 0.06417523 0.0019795708 -0.06824069 -0.053184964
-0.04605281 0.023115003 0.056500543 0.006236535 0.018869717 0.06945425 0.071779996 -0.08287305
00000000: c3e0 6b3d 9e26 6dba 2549 f4bb 21bd 34bd
00000010: a053 35bd 4ef2 64bb 223e 523c 442b 4d3c
00000020: 7b61 683d 3f77 38bd 71c1 92bc d658 3b3c
00000030: 5edb 71bd 9316 9cbd 7e05 0dbd 75af 5f3d
00000040: 0468 ab3d 7daf bbbd e478 af3c 55ce 0cbd
00000050: 6694 b63d 4afd b73d 926c bdbd 289b 1cbd
00000060: fad3 bfbb 2d32 103d 26a6 8bbd cbde 803d
00000070: 7d1d 2bbb 8fba b2bd 7095 b7bd f863 b6bd
00000080: 52c8 fdbc 8354 77bc 7e3c 9c3b f655 703d
00000090: 3f56 de3c 3473 a5bd 7548 9bbd 1adc 9c3d
000000a0: 918e 71bd 8d62 34bc 98b4 babd cae2 e9bc
000000b0: 8abc 82bd 461a 983d 28cd 5a3d e5c6 973d
000000c0: aebd a9bc e6c5 593d 426a 3dbd 4919 bd3d
000000d0: cb2c 33bd f640 0fbb d2b2 89bd 78c7 353d
000000e0: fdf3 733d 7608 3cbd 97d3 5cbd 719f 80bc
000000f0: 9df8 86bd 357c 8e3d 62e4 8c3d 4c81 b0bd
00000100: 748e 7b3d ae00 8bbc df92 19bc 462d 633c
00000110: 0c7f 85bc 5a63 80bd 59d7 b23c 60b5 4f3c
00000120: db87 4bbd 7a8d adbd ef8a 2d3c 00e3 28bb
00000130: 5980 923d 363b 51bd 303e e7bb f9aa 803c
00000140: e7fc a83d 51b6 a43c 15c7 973d cff9 b9bd
00000150: cbef 933b b45f 46bd 45d0 c23c 73f4 29bd
00000160: 3f73 d23c d437 33bc af05 3a3d 957b b4bd
00000170: ead0 ebbc 0a7c 743c 8f00 293c dd59 70bd
00000180: b4c6 793d 12ba 953d 739f 1abd 91c5 493d
00000190: f08b 973d d9a2 0c3d dcbc 16bd 75ad 81bd
000001a0: 23db a1bb 1693 8a3d 8a91 88bc 6cd2 b63d
000001b0: 0458 a53d 847c f03c f191 47bd 2076 90bd
000001c0: d903 bb3d 4211 92bb 0bfd 90bb 8b72 b93d
000001d0: dd36 e33c 706d c9bc d615 463d e503 813d
000001e0: 078f a9bd 15a4 673d 4b86 adbc c21c 19ba
000001f0: e84b 513b ee0e cdbd acaf 933d cca3 2a3d
00000200: 5ad2 ad3d d0f9 873c 2c16 03bd 980a f8bc
00000210: 0125 a53d 475f d83c 90dc ae3d 1c04 0b3d
00000220: f578 c4b9 184a 8abc d1f8 9c3c 77c2 a43d
00000230: 4c71 e83c 3638 f2bc 838e 34bd 59c8 ab3d
00000240: 6b4c 313d 11ba 98bd efb7 f4bc ec54 e63c
00000250: 95af 57bc a129 c2bd 4a7f a63d 689a 8bbc
00000260: 3ca3 b9bc 83e4 a1bd 4dd1 3a3d d2ec e93c
00000270: 4c70 86bd e011 de3c 47d8 1cbd c3de b33b
00000280: 72be ba3d 7bc4 bdba 26fb ab3d 2484 e0bb
00000290: 81de 683d 40fd 763d 0372 463c 18d5 d73c
000002a0: b36f a6bd 8a1c 773d bc81 13bd 9b9b 48bd
000002b0: 0cff 6b3c 9e5c c5bd 8f8d 893d 56f5 733d
000002c0: f08d a03d ab06 8d3d 4acf c03c 6044 193d
000002d0: 1beb da3c 3397 623d 24bc af3c 7afe a2bc
000002e0: 402c 1d3d b994 9dbc 3c0a 8ebd 6499 f33c
000002f0: f189 efbb d916 84bd 95f5 7abd d704 463d
00000300: 8aa7 9abc 2a07 333b 66d1 f9bc b032 01bd
00000310: 41a9 03bd f589 36bd a716 2d3d 7418 afbd
00000320: cea2 4c3d 2e22 5dbd 4054 903b c83e a5bb
00000330: 2bd9 0a3c 7f78 373d 61a7 b63d 3ff3 083d
00000340: 9f4c 39bd 7854 8a3d 423d a5bc fe57 843d
00000350: 430a 0cbc 009e 873c e9f0 c2bc 48c2 373c
00000360: a52e 12bd f90e 98bd f33a a8bd bff5 cfbc
00000370: b541 94bd 3b35 a33d 0bdf 993d f2c9 e5bc
00000380: 8a77 df3c c2ca 9a3d 7278 84bd aba3 8d3d
00000390: 7bdc e5b8 b4ba 243d 7038 d3bc f095 593d
000003a0: 311d 91bd 7fc4 893d ad79 e8bc 4d60 7abd
000003b0: 690d 19bd 9ba6 bf3c 146b 053d 3d01 903d
000003c0: f797 c3bc 4b70 e8bc 57aa 82bc 7922 e8bc
000003d0: 4e6e 833d b0bb 013b c6c1 8bbd 7ad8 59bd
000003e0: dfa1 3cbd ad5b bd3c 1d6d 673d d95b cc3b
000003f0: aa94 9a3c 083e 8e3d 6401 933d 58b9 a9bd

policy_layers.0.bias f4 [64]
-0.022394517 0.040626574 0.013900995 0.08198937 -0.09386252 -0.03457172 0.04622742 0.010521869
-0.061248988 0.042079747 0.022890445 -0.060662746 -0.063330725 -0.07717379 -0.0041048834 -0.00048386643
0.05290136 0.08096061 -0.053643573 -0.048160326 -0.045557544 0.0800731 0.038384307 0.0681829
-0.041460663 0.009701566 -0.07051652 -0.0017235066 0.0059033125 0.046179213 0.079020254 0.09479989
-0.005003012 0.038205147 0.02850513 0.0730645 -0.012760966 -0.08298302 0.08816487 0.03400697
0.008153928 -0.02691037 0.10769891 -0.04116089 -0.062196203 -0.056442987 -0.071176425 0.09234465
0.009737977 0.027193213 0.09066811 0.09119362 0.08247822 0.07658467 -0.05234766 -0.001346183
0.09237891 0.05841402 0.05099399 0.10180417 0.080687076 0.07672845 -0.081858896 -0.080675334
00000000: b574 b7bc 0d68 263d 00c1 633c 0bea a73d
00000010: fe3a c0bd 139b 0dbd f758 3d3d eb63 2c3c
00000020: 38e0 7abd d05b 2c3d be84 bb3c 8079 78bd
00000030: 8ab3 81bd 4b0d 9ebd 4282 86bb 74af fdb9
00000040: 19af 583d adce a53d 5db9 5bbd c343 45bd
00000050: 8c9a 3abd 5efd a33d dd38 1d3d 7aa3 8b3d
00000060: a8d2 29bd 51f3 1e3c f76a 90bd 49e7 e1ba
00000070: 9370 c13b 6a26 3d3d 5fd5 a13d 7226 c23d
00000080: 4ef0 a3bb 007d 1c3d 9783 e93c d7a2 953d
00000090: 5f13 51bc 00f3 a9bd c98f b43d e44a 0b3d
000000a0: 0e98 053c 2373 dcbc 3f91 dc3d 5298 28bd
000000b0: 72c1 7ebd c330 67bd f2c4 91bd 311f bd3d
000000c0: 098c 1f3c 4dc4 de3c 34b0 b93d b8c3 ba3d
000000d0: 57ea a83d 6cd8 9c3d 806a 56bd 6872 b0ba
000000e0: 2731 bd3d 8a43 6f3d 13df 503d b47e d03d
000000f0: 443f a53d ce23 9d3d a3a5 a7bd 1c39 a5bd
