lunar/checkpoints/model_1693.pth (torch, 541538 bytes, 39 tensors)

shared_layers.0.weight f4 [256, 8]
-0.88568074 -0.061173305 0.1686263 0.98210245 0.22039609 0.58605146 0.107468784 -0.26247936
-0.34883067 -0.087542 0.18541242 1.3660355 0.76161724 -0.36468074 0.33022168 0.7811234
0.5045157 -0.33746728 -0.4937567 0.33055562 -0.50383264 0.12927765 0.14790805 -0.6000633
0.54681194 0.46742404 -0.20553939 0.11390057 -0.4805988 0.49589595 0.23405944 0.4396326
-0.5842361 0.29155573 0.04863343 -0.37256303 0.702204 0.12780786 0.12964883 -0.20516159
-0.7863921 -0.18549763 -1.0248499 1.1017265 0.23456697 -0.11644178 -0.46045393 1.0236573
0.52959234 0.38467216 -0.0756922 0.37558892 -0.7311434 0.055974353 0.121195406 -0.18805559
-0.14846179 -0.42343438 -0.34755555 -0.29368255 0.59097207 -0.042187177 -0.80972105 -0.3330046
-0.075684585 0.43131685 0.63305885 -0.3335885 -0.21795487 -0.4118767 0.44593805 0.37003514
-0.9358462 -0.09395267 0.6495701 0.018557705 0.2308133 -0.418531 -0.54977614 0.2271935
0.00043564837 0.97925454 -0.8465929 0.45497268 -0.27260906 -0.5732767 -0.49667105 0.2586405
0.8712598 -0.06240797 0.19243068 0.6014344 0.3950847 -0.5864384 -1.1509991 -0.44053078
1.4245319 -0.25909817 -0.0343514 -0.11997261 1.2276635 0.14199148 1.2062656 0.12168183
-0.5182108 -0.92754513 -0.17414065 -0.14082433 0.40412965 -0.6402105 0.8069271 -0.03933069
0.18645136 0.03699756 -0.25984913 -0.25311735 0.053203434 0.3403738 0.29437676 -0.8690153
0.13761678 -1.8633795 -0.22771005 -0.22877754 0.08782662 -0.19137982 -0.14731799 -0.260457
-0.056156658 0.3248881 0.9952436 -0.065909676 -0.20231788 -0.5952907 -0.6183068 0.91061985
-0.50037 -0.3020365 -0.2865761 -0.7670774 -0.5787179 -0.31604895 0.16053547 0.33708394
-0.61401653 0.14463574 0.13716532 0.015610799 0.06434393 -1.3498644 0.5782007 0.08376763
0.5114343 -0.1673322 -0.2828477 0.036662403 0.17655586 0.76108956 -0.09639578 -0.14816481
0.032769274 0.037897278 -0.29136962 0.9314514 0.018032204 -0.1913066 -0.76181704 0.6003183
-0.21999982 -0.64866614 0.15841013 0.5630457 0.44202724 0.16990685 0.060144994 0.9873699
0.3192962 0.3195679 -0.020905787 -0.24078819 -0.20944555 0.27579296 -1.0000634 0.21274854
-0.4695678 -0.3420197 0.70909536 0.08598217 -0.40205625 0.25160095 -0.6165665 -0.44891232
-0.052169412 -0.22769058 0.08510692 0.55164015 0.12030009 0.20260404 0.0745321 0.7427848
0.5149094 -0.060978018 -0.12357542 -0.18712826 0.43396938 -0.47720367 -0.8957993 0.26580992
-0.3734866 -0.43616197 -0.498419 -0.041528795 -0.0191588 -0.027075782 -0.24958457 0.67409426
-1.1147991 0.88554037 -0.7412832 -0.4598322 1.0021422 -0.05050785 0.49711737 0.34038076
-0.48086065 -0.34713498 0.7618402 -1.4184096 -0.45566183 -0.4581308 0.2099653 -0.74490035
-0.6874395 0.15635505 0.6255704 -1.2498677 0.09534591 -0.716609 -0.4373049 0.57578385
0.9055779 -0.22712032 -0.003333446 0.4648329 -0.047730133 0.4231352 0.5121162 0.52973104
-0.10941663 -0.24641807 -0.23080663 -0.741902 -0.82830405 -0.12705469 -0.3203792 0.31220195
00000000: f9bb 62bf dc90 7abd 5fac 2c3e 116b 7b3f
00000010: 83af 613e 7807 163f 9818 dc3d b263 86be
00000020: ef99 b2be 3849 b3bd c1dc 3d3e 40da ae3f
00000030: 59f9 423f 6fb7 babe d112 a93e b4f7 473f
00000040: f127 013f 83c8 acbe aecd fcbe 963e a93e
00000050: 2dfb 00bf 5c61 043e 3575 173e c09d 19bf
00000060: defb 0b3f 3452 ef3e eb78 52be b444 e93d
00000070: 0c11 f6be 13e6 fd3e 47ad 6f3e 8617 e13e
00000080: 7f90 15bf cb46 953e d933 473d 95c0 bebe
00000090: a4c3 333f 10e0 023e aac2 043e e115 52be
000000a0: fe50 49bf 17f3 3dbe 482e 83bf 6005 8d3f
000000b0: 5332 703e 0779 eebd 9ec0 ebbe 3407 833f
000000c0: 5d93 073f c0f3 c43e 8304 9bbd 314d c03e
000000d0: 372c 3bbf 5d45 653d 4c35 f83d a591 40be
000000e0: 5e06 18be 64cc d8be cdf2 b1be 8f5d 96be
000000f0: f249 173f 76cc 2cbd e149 4fbf 947f aabe
00000100: 8500 9bbd 90d5 dc3e 2510 223f 1dcc aabe
00000110: 902f 5fbe 81e1 d2be fe51 e43e 3f75 bd3e
00000120: 9e93 6fbf 426a c0bd 3a4a 263f 5406 983c
00000130: 525a 6c3e b249 d6be 21be 0cbf 6aa5 683e
00000140: bc67 e439 6db0 7a3f 50ba 58bf 2ef2 e83e
00000150: 6a93 8bbe 43c2 12bf ab4b febe 876c 843e
00000160: e20a 5f3f 809f 7fbd 8c0c 453e 9bf7 193f
00000170: 8b48 ca3e d420 16bf f053 93bf 408d e1be
00000180: 1057 b63f 84a8 84be 0eb4 0cbd 33b4 f5bd
00000190: 1424 9d3f 3766 113e e966 9a3f 5334 f93d
000001a0: 77a9 04bf 9973 6dbf ed51 32be 4134 10be
000001b0: 15ea ce3e d6e4 23bf c692 4e3f 3819 21bd
000001c0: 1bed 3e3e c18a 173d f20a 85be 9998 81be
000001d0: d8eb 593d 7a45 ae3e 8db8 963e c977 5ebf
000001e0: 6aeb 0c3e 3883 eebf d32c 69be a944 6abe
000001f0: 71de b33d 12f9 43be 87da 16be 9f5a 85be
00000200: 8604 66bd bc57 a63e 49c8 7e3f a7fb 86bd
00000210: 6b2c 4fbe f964 18bf 5b49 1ebf 621e 693f
00000220: 4018 00bf 87a4 9abe 1aba 92be 2f5f 44bf
00000230: db26 14bf 2bd1 a1be 6963 243e 4496 ac3e
00000240: 3030 1dbf 641b 143e 1175 0c3e 70c4 7f3c
00000250: c0c6 833d 5bc8 acbf f604 143f 5d8e ab3d
00000260: 5ced 023f 2259 2bbe 6ad1 90be 512b 163d
00000270: 0fcb 343e c4d6 423f 276b c5bd 84b8 17be
00000280: 1339 063d 2d3a 1b3d 662e 95be 9973 6e3f
00000290: 46b8 933c e1e5 43be 7106 43bf 76ae 193f
000002a0: a247 61be fc0e 26bf 4436 223e c323 103f
000002b0: 6551 e23e 10fc 2d3e 995a 763d 46c4 7c3f
000002c0: cb7a a33e 679e a33e 9d42 abbc 2e91 76be
000002d0: e578 56be bc34 8d3e 1402 80bf c1da 593e
000002e0: 316b f0be 351d afbe 4687 353f 6c17 b03d
000002f0: 51da cdbe d7d1 803e 4dd7 1dbf d6d7 e5be
00000300: 98af 55bd b827 69be 894c ae3d 4a38 0d3f
00000310: e55f f63d 6f77 4f3e 49a4 983d 2527 3e3f
00000320: 1ad1 033f 16c4 79bd 1c15 fdbd 8d9e 3fbe
00000330: 3c31 de3e 0a54 f4be 1a53 65bf 3d18 883e
00000340: a339 bfbe 9f50 dfbe c630 ffbe 191a 2abd
00000350: eaf2 9cbc 08ce ddbc 1993 7fbe 7191 2c3f
00000360: bdb1 8ebf c6b2 623f bcc4 3dbf 206f ebbe
00000370: 3246 803f 52e1 4ebd 2b86 fe3e 6346 ae3e
00000380: 5e33 f6be adbb b1be f607 433f 728e b5bf
00000390: 824c e9be 1f90 eabe 2501 573e cab1 3ebf
000003a0: 09fc 2fbf 8a1b 203e 6225 203f aafb 9fbf
000003b0: b744 c33d b073 37bf 6ee6 dfbe 9266 133f
000003c0: f4d3 673f 3b92 68be f275 5abb 94fe ed3e
000003d0: ac80 43bd 2da5 d83e 0c1a 033f 749c 073f
000003e0: d315 e0bd 0555 7cbe 9358 6cbe 4aed 3dbf
000003f0: bc0b 54bf a01a 02be be08 a4be efd8 9f3e

shared_layers.0.bias f4 [256]
-0.029742079 0.019120201 0.039639156 0.049265638 -0.056046657 0.03348582 0.07597886 0.001083177
-0.08031801 0.071673214 -0.011292093 -0.005437325 -0.01128237 -0.031709947 -0.038095236 0.1658496
-0.012059977 -0.0625578 -0.0009273072 -0.01026576 -0.0057263356 -0.007439829 -0.022601198 -0.002260057
0.07235905 0.054004695 -0.034672778 0.0138695445 0.025774414 0.009879521 -0.05806547 -0.040867396
-0.008264439 0.019927338 0.059342097 0.017698556 -0.010856407 0.020221805 0.09080768 0.053655654
-0.029634416 -0.011091486 0.019464068 0.0836774 0.048071127 -0.0005045428 -0.0039763716 0.047436915
-0.100700796 -0.05540747 -0.001193141 0.016458951 -0.023863893 -0.033259492 -0.023425015 0.013866553
-0.074486434 -0.049821492 0.015769348 -0.050081905 -0.050689455 0.04298258 -0.05402465 0.10417931
-0.049233377 -0.026041914 -0.06522055 -0.04418064 0.01733014 -0.037201274 -0.04403626 -0.015385483
0.06039395 -0.01673355 0.071628906 0.08320398 0.040020484 -0.027703146 -0.031979237 0.002533191
-0.048469767 0.004801705 -0.031587217 -0.0068774745 -0.048206635 -0.059766673 -0.054863162 0.070081905
-0.007395823 0.07200757 0.048542358 -0.053114083 -0.03622754 -0.06209685 -0.042428333 -0.02119981
-0.02956455 -0.04837172 -0.06081921 -0.05430639 0.0060505625 0.04049213 0.07755582 0.071062624
-0.058733884 -0.0020126868 -0.06697008 0.12615196 -0.0055760215 0.044776954 0.1104026 -0.04089605
0.07032935 0.018488621 -0.04885056 -0.008383218 -0.06468429 -0.02643067 -0.05705899 -0.04132817
0.040699106 0.010804997 0.09721702 0.0015833027 0.005898083 -0.045225013 -0.0023437026 0.01867767
0.04107714 -0.05157267 -0.022258291 -0.05389343 0.002157472 -0.044962045 -0.04345075 0.06813331
0.005062456 -0.07114811 -0.019442583 -0.0056458693 0.07395378 -0.05541693 0.008902429 0.0028697273
-0.038906027 0.07308879 -0.020212816 0.019062364 -0.060653817 0.040533707 -0.06391367 -0.021792447
0.009731056 0.010100403 0.09420279 -0.0331724 0.08157443 0.012175021 -0.021622565 -0.00089553
0.114173815 0.06801222 -0.019289523 -0.050019275 0.032298837 0.081443064 -0.014370802 -0.022160083
0.039602257 -0.0379344 -0.03459446 -0.02642266 0.05410477 0.11824051 -0.025658779 0.0147776045
-0.07667569 0.0067071845 0.025854222 -0.004889851 -0.042366356 -0.047842 -0.013768841 -0.0034327698
0.08715763 0.0009836241 0.025847461 -0.016342102 0.0049243416 0.096123055 -0.057070933 0.07441901
-0.029720737 0.0457786 0.017169153 -0.054717552 -0.036852755 -0.07277808 -0.011661856 0.010148921
-0.01797168 0.05360345 -0.0065208655 -0.030922972 -0.019906512 -0.053297527 -0.023906576 0.008452631
-0.048490494 -0.040017635 0.09091613 0.0523315 -0.0314873 0.025089363 -0.05743366 0.07143217
0.0092366375 0.03592884 -0.057922058 0.043346718 0.092896424 -0.03606034 -0.036666363 -0.04052083
-0.028232483 0.07374182 0.051693004 -0.032945063 -0.0010924679 0.028002737 0.034870878 -0.018565118
0.01844192 0.027542835 0.03420907 -0.041301932 -0.038876325 -0.030846512 0.02710626 -0.022878379
-0.053656403 -0.08544534 -0.059513643 0.011552633 -0.08784478 0.06681491 -0.05731221 -0.06745002
0.1102944 -0.04450876 -0.007595732 -0.032012288 -0.043603186 -0.013643766 -0.015275968 -0.07035336
00000000: a9a5 f3bc f8a1 9c3c ab5c 223d c4ca 493d
00000010: 2e91 65bd 6d28 093d ce9a 9b3d 64f9 8d3a
00000020: c57d a4bd 68c9 923d 7902 39bc 972b b2bb
00000030: b1d9 38bc 4ae2 01bd c009 1cbd 7ad4 293e
00000040: 3697 45bc 4e1e 80bd 8816 73ba b831 28bc
00000050: fca3 bbbb cfc9 f3bb 2626 b9bc 771d 14bb
00000060: fb30 943d 0734 5d3d 0b05 0ebd 163d 633c
00000070: dd24 d33c b7dd 213c 0fd6 6dbd 9264 27bd
00000080: 9267 07bc a83e a33c b310 733d 90fc 903c
00000090: 12df 31bc 33a8 a53c 60f9 b93d 08c6 5b3d
000000a0: e0c3 f2bc 10b9 35bc 1c73 9f3c 0f5f ab3d
000000b0: 3be6 443d 4b43 04ba 394c 82bb 364d 423d
000000c0: 383c cebd f1f2 62bd 2b63 9cba ecd4 863c
000000d0: 367e c3bc 1b3b 08bd d1e5 bfbc 8a30 633c
000000e0: 588c 98bd 9f11 4cbd b82e 813c af22 4dbd
000000f0: bf9f 4fbd 800e 303d f448 5dbd f65b d53d
00000100: f0a8 49bd da55 d5bc 5a92 85bd c2f6 34bd
00000110: f0f7 8d3c 5d60 18bd 5e5f 34bd 6513 7cbc
00000120: a65f 773d cc14 89bc 2db2 923d d966 aa3d
00000130: 85ec 233d b5f1 e2bc a9fc 02bd e403 263b
00000140: 3c88 46bd 9f57 9d3b 9961 01bd 705c e1bb
00000150: 5274 45bd e6cd 74bd 32b8 60bd 1a87 8f3d
00000160: a958 f2bb b478 933d 5ad4 463d 278e 59bd
00000170: 5463 14bd 4459 7ebd 55c9 2dbd 39ab adbc
00000180: 5b31 f2bc 6d21 46bd 901d 79bd 6170 5ebd
00000190: cc43 c63b 13db 253d 96d5 9e3d 4889 913d
000001a0: f192 70bd 48e7 03bb 9c27 89bd fb2d 013e
000001b0: 0fb7 b6bb 0a68 373d c21a e23d 9e82 27bd
000001c0: d608 903d 7375 973c 8617 48bd c459 09bc
000001d0: 3279 84bd 2285 d8bc b0b6 69bd ba47 29bd
000001e0: 1bb4 263d 7107 313c b819 c73d d386 cf3a
000001f0: b544 c13b dd3d 39bd ce98 19bb ea01 993c
00000200: 8140 283d dd3d 53bd 0557 b6bc 5bbf 5cbd
00000210: 6064 0d3b 1f2a 38bd 6af9 31bd 7a89 8b3d
00000220: f5e2 a53b 1ab6 91bd 0d46 9fbc fc00 b9bb
00000230: 1475 973d ddfc 62bd 7edb 113c 0912 3c3b
00000240: ed5b 1fbd 93af 953d 5995 a5bc ad28 9c3c
00000250: 2370 78bd ac06 263d 2ce5 82bd 1386 b2bc
00000260: 026f 1f3c 297c 253c 64ed c03d c8df 07bd
00000270: 7f10 a73d bd79 473c ce21 b1bc 00c2 6aba
00000280: f6d3 e93d fe49 8b3d 1005 9ebc 03e1 4cbd
00000290: c94b 043d 9fcb a63d 8373 6bbc 1089 b5bc
000002a0: fa35 223d 1a61 1bbd ecb2 0dbd 5674 d8bc
000002b0: f79c 5d3d 1528 f23d 5c32 d2bc c41d 723c
000002c0: 2508 9dbd f1c7 db3b 3ccc d33c 0b3b a0bb
000002d0: 5888 2dbd f9f5 43bd b496 61bc 52f8 60bb
000002e0: b37f b23d f3ec 803a 0ebe d33c dfdf 85bc
000002f0: 5f5c a13b 2adc c43d 36c3 69bd fe68 983d
00000300: e778 f3bc 5782 3b3d 53a6 8c3c 831f 60bd
00000310: eaf2 16bd ad0c 95bd 5f11 3fbc a947 263c
00000320: 5839 93bc 4b8f 5b3d fcac d5bb 2c52 fdbc
00000330: fb12 a3bc 824e 5abd b9d7 c3bc e77c 0a3c
00000340: f89d 46bd 88e9 23bd 3c32 ba3d 8e59 563d
00000350: d4f8 00bd 3588 cd3c 8f3f 6bbd 084b 923d
00000360: 4455 173c 1f2a 133d ae3f 6dbd 548c 313d
00000370: 7b40 be3d 02b4 13bd 782f 16bd 2bf9 25bd
00000380: cf47 e7bc f405 973d 0bbc 533d 67f1 06bd
00000390: 2431 8fba ff65 e53c c4d4 0e3d e015 98bc
000003a0: 8213 973c 83a1 e13c cf1e 0c3d 372c 29bd
000003b0: c83c 1fbd d3b1 fcbc f30d de3c 706b bbbc
000003c0: d1c6 5bbd f7fd aebd 94c4 73bd 4147 3d3c
000003d0: f7e7 b3bd 41d6 883d 35c0 6abd 3c23 8abd
000003e0: 08e2 e13d d14e 36bd 9ee5 f8bb 511f 03bd
000003f0: 4199 32bd 1a8a 5fbc 0e48 7abc 6c15 90bd

shared_layers.1.weight f4 [256]
0.978664 1.020837 1.0153418 0.9882563 1.0061252 1.0205435 0.9972724 1.0054588
0.9956209 0.99612397 0.9777336 0.96848005 0.97320414 0.9949049 0.9975529 1.1566839
1.018674 1.0122942 1.002755 0.987742 1.0201725 0.98786306 0.99467987 0.9881767
1.0018069 1.0218593 1.0156947 1.0065225 0.99965835 0.99116474 0.97077334 1.0214338
0.98066425 0.98693544 1.0193205 0.9841623 1.0254256 0.9947744 1.0593506 1.0227673
1.0087711 1.0044265 0.9918765 1.0441765 1.0057238 0.97641665 0.968244 1.0015919
1.0042137 1.0111386 0.9848222 0.9859694 0.9662378 1.0004807 0.97716457 1.0004714
1.022204 1.0186214 1.0662318 0.99330294 0.9751405 0.9902667 1.0087997 1.0391265
1.0255306 1.0008914 0.99830663 0.97804797 0.99536365 0.9397672 1.0090764 1.0011356
1.0210916 1.0065538 1.007844 0.99712855 0.99337345 0.9961446 1.0076671 1.0008898
0.9901769 1.0110018 0.97113115 0.983863 0.99842966 0.9971911 0.9911944 1.0187906
1.0055877 1.026775 1.0019537 0.96951 1.0270401 1.0103502 0.9698163 1.0059417
0.9884991 0.98558176 1.0030162 1.0026538 1.0010717 1.012855 0.9912357 1.0065761
0.9813195 0.95241874 0.9735888 1.0562516 0.98737603 0.99444026 1.126517 0.9876819
1.0151826 1.0065846 0.98908406 0.98429847 0.97303337 1.0156398 1.0090016 0.9982374
0.9872539 0.9909799 1.0286909 1.0000288 0.9707851 0.9777453 1.0049176 0.98766065
0.9986953 1.0117171 0.98339826 1.0372818 1.0019954 0.9880524 0.987098 1.0456796
1.0151789 0.9765122 1.0292686 1.0290585 0.9897102 0.99954623 1.0143439 0.98434687
1.0045166 1.0400288 0.9903196 0.98125976 1.010854 1.0132934 1.0292308 1.0130192
0.99090695 0.9955608 1.0235137 0.99821067 1.0222481 1.0032012 0.9797361 0.96580607
1.0054696 0.9910905 0.9881916 1.0134128 0.9957104 1.0361403 0.99499565 1.0257618
0.9935214 0.9851162 0.9674525 1.0281751 0.98919135 1.0327578 1.0113143 0.9953661
1.0135655 1.0019311 1.0070385 1.0042534 1.0135157 0.97197324 1.0348907 1.0251893
1.0024035 0.98802876 0.9827354 0.9906106 0.98300606 1.0420699 1.023651 0.99834347
0.975205 1.0022744 0.99145985 0.9954976 0.9918263 1.0039707 0.98026717 1.0039568
0.9735471 1.0236224 0.9842553 0.9979756 1.0252146 0.9796662 0.96754086 0.993017
0.9957835 0.9642091 0.9974187 1.0106217 1.0011333 0.98944867 1.0113324 0.9870307
1.0014923 0.9791269 0.9979193 0.9871299 1.0363533 0.996322 1.0012853 0.998959
1.0044602 0.9910612 1.0241389 1.0009962 0.9930953 1.0146453 1.0309684 0.99420977
0.9963936 0.9957947 0.9862309 0.99889296 0.99581707 0.99181896 0.9913587 0.96359664
1.0040653 1.0100111 1.0176282 0.99303174 1.0291346 0.9894251 0.9835526 1.0049987
1.0459583 0.98910075 1.007227 0.95821047 0.97565925 1.0182191 0.9922199 0.94394195
00000000: b989 7a3f c9aa 823f b8f6 813f 5dfe 7c3f
00000010: b6c8 803f 2ba1 823f 3e4d 7f3f e0b2 803f
00000020: 03e1 7e3f fb01 7f3f c04c 7a3f 4fee 773f
00000030: e823 793f 16b2 7e3f a05f 7f3f 380e 943f
00000040: e963 823f db92 813f 475a 803f a9dc 7c3f
00000050: 0395 823f 98e4 7c3f 57a3 7e3f 26f9 7c3f
00000060: 353b 803f 49cc 823f 4902 823f bbd5 803f
00000070: 9ce9 7f3f f9bc 7d3f 9a84 783f 58be 823f
00000080: d00c 7b3f cda7 7c3f 1879 823f 0ff2 7b3f
00000090: 2541 833f 89a9 7e3f cd98 873f 0aea 823f
000000a0: 691f 813f 0c91 803f 9eeb 7d3f 93a7 853f
000000b0: 8fbb 803f 71f6 793f d7de 773f 2a34 803f
000000c0: 138a 803f fd6c 813f 4f1d 7c3f 7e68 7c3f
000000d0: 5c5b 773f c00f 803f 7527 7a3f 720f 803f
000000e0: 95d7 823f 3062 823f 497a 883f 1a49 7e3f
000000f0: cfa2 793f 1e82 7d3f 5920 813f 1902 853f
00000100: 9644 833f 361d 803f 0691 7f3f 5a61 7a3f
00000110: 27d0 7e3f 9594 703f 6a29 813f 3625 803f
00000120: 21b3 823f c1d6 803f 0801 813f d143 7f3f
00000130: b94d 7e3f 5503 7f3f 3cfb 803f 281d 803f
00000140: 3c7c 7d3f 8268 813f 0d9c 783f 72de 7b3f
00000150: 1699 7f3f ea47 7f3f ebbe 7d3f bb67 823f
00000160: 19b7 803f 5d6d 833f 0540 803f cf31 783f
00000170: 0d76 833f 2853 813f e245 783f b3c2 803f
00000180: 470e 7d3f 164f 7c3f d662 803f f656 803f
00000190: 1e23 803f 3ca5 813f 9fc1 7d3f 7cd7 803f
000001a0: c137 7b3f b7d1 733f 1e3d 793f 4133 873f
000001b0: adc4 7c3f a393 7e3f b631 903f b9d8 7c3f
000001c0: 81f1 813f c4d7 803f 9d34 7d3f fcfa 7b3f
000001d0: b718 793f 7c00 823f f726 813f 7c8c 7f3f
000001e0: acbc 7c3f dcb0 7d3f 25ac 833f f200 803f
000001f0: 5f85 783f 844d 7a3f 24a1 803f 54d7 7c3f
00000200: 7faa 7f3f f27f 813f fdbf 7b3f a6c5 843f
00000210: 6341 803f 01f1 7c3f 74b2 7c3f d4d8 853f
00000220: 62f1 813f b4fc 793f 13bf 833f 30b8 833f
00000230: a65d 7d3f 43e2 7f3f 05d6 813f 28fe 7b3f
00000240: 0094 803f aa1f 853f 9685 7d3f d733 7b3f
00000250: aa63 813f 99b3 813f d6bd 833f 9daa 813f
00000260: 14ac 7d3f 13dd 7e3f 7f02 833f bc8a 7f3f
00000270: 07d9 823f e668 803f fccf 7a3f 113f 773f
00000280: 3ab3 803f 1bb8 7d3f 20fa 7c3f 83b7 813f
00000290: e0e6 7e3f 3fa0 843f 09b8 7e3f 2a4c 833f
000002a0: 6b57 7e3f 9330 7c3f f8aa 773f 3e9b 833f
000002b0: a53b 7d3f 6831 843f bf72 813f 50d0 7e3f
000002c0: 84bc 813f 473f 803f a3e6 803f 608b 803f
000002d0: e2ba 813f 3dd3 783f 4c77 843f 6739 833f
000002e0: c24e 803f 74ef 7c3f 8c94 7b3f a898 7d3f
000002f0: 49a6 7b3f 8c62 853f ff06 833f 7093 7f3f
00000300: 09a7 793f 874a 803f 50d0 7d3f eed8 7e3f
00000310: 54e8 7d3f 1d82 803f caf2 7a3f a881 803f
00000320: 623a 793f 0f06 833f 28f8 7b3f 547b 7f3f
00000330: 3b3a 833f 67cb 7a3f c2b0 773f 5d36 7e3f
00000340: abeb 7e3f 68d6 763f d556 7f3f 0d5c 813f
00000350: 2325 803f 824c 7d3f 5773 813f 0bae 7c3f
00000360: e630 803f 0fa8 7a3f a477 7f3f 8cb4 7c3f
00000370: 3aa7 843f f50e 7f3f 1e2a 803f c7bb 7f3f
00000380: 2792 803f 30b6 7d3f fc16 833f a520 803f
00000390: 7e3b 7e3f e6df 813f c6f6 833f 8884 7e3f
000003a0: a713 7f3f 67ec 7e3f a179 7c3f 73b7 7f3f
000003b0: deed 7e3f d9e7 7d3f afc9 7d3f 45ae 763f
000003c0: 3685 803f 0b48 813f a441 823f 5437 7e3f
000003d0: afba 833f f74a 7d3f 1aca 7b3f cca3 803f
000003e0: f6e1 853f b535 7d3f d0ec 803f 484d 753f
000003f0: cec4 793f 0155 823f 2002 7e3f 2ea6 713f

shared_layers.1.bias f4 [256]
-0.03242521 0.0041130455 0.0130948685 -0.010408051 -0.006978823 0.008256114 -0.015525029 -0.014876353
-0.010850537 0.013410844 -0.011500082 -0.0047309236 -0.018647099 0.007961313 0.0019146779 0.04280473
-0.0035681108 -0.009000479 -0.010506292 -0.020694276 -0.025155278 -0.027793659 -0.0026916182 -0.021693401
-0.00087284436 0.0031732214 0.009530614 -0.017350469 0.0045381305 0.00079081964 -0.030433081 0.041528314
-0.022809107 -0.020380821 -0.015725732 -0.026903784 0.0012173773 0.010652882 -0.0026937965 0.014905654
0.008090693 -0.002575621 -0.02351595 -0.0004479032 -0.021842865 -0.015035365 -0.019277623 0.01672327
-0.010188538 -0.008698681 -0.013612896 -0.020489622 -0.033106245 -0.0022537159 -0.008299716 -0.008795285
-0.00023576106 0.031006847 0.085963294 -0.010736355 -0.0065021706 0.013288672 -0.015068677 0.032797594
0.0039402386 0.0054277186 -0.0021558388 -0.01920978 0.0011531579 -0.069452554 0.010026151 0.005322192
-0.023375206 -0.010903879 -0.00951074 -0.026762007 0.0007965387 -0.023492083 -0.00089991605 -0.018484121
-0.011105744 0.0018156606 -0.020117402 -0.018842971 -0.031023923 -0.0069030924 -0.008237876 -0.0042425124
-0.011675951 -0.010258539 -0.017206084 -0.024985496 0.038729686 -0.005749786 -0.031339325 -0.0128484
-0.015302125 -0.00940236 0.0019504579 0.0014642116 -0.013142836 -0.012048949 -0.016978983 -0.002707693
-0.027437165 -0.02405654 -0.03136839 0.0738532 0.0072116465 0.010978945 0.015171283 -0.024604676
0.0016609925 0.0059372145 -0.0031518864 -0.0065878443 -0.019617414 -0.006152014 0.013067961 -0.004519055
-0.02009054 -0.021652069 0.0041153696 -0.01275902 -0.025354028 -0.014275032 -0.0035878983 -0.0015768484
-0.018456861 -0.006699445 -0.023166455 0.024717953 0.008393554 -0.0140182935 -0.02447798 0.02126599
-0.008320726 -0.027113393 0.027876845 -0.019523991 -0.0017581562 -0.01998934 0.007994687 -0.016836043
-0.0069403662 0.007925764 -0.02250166 -0.023630435 -0.015706763 0.009328394 0.0023744244 -0.012109736
0.0008440501 -0.018994484 0.012178779 -0.009676649 0.0087886695 0.0043747397 -0.019833637 -0.023008095
-0.017975943 -0.0036665346 -0.026926007 0.0018014165 0.0012436402 -0.010434778 -0.013321191 0.04960209
-0.00080347585 -0.02176431 -0.024025433 0.005276968 -0.009058816 0.0063659134 0.042302597 0.0108732
-0.00086815574 -0.0038112453 -0.013996219 -0.004457402 0.014832345 -0.016746016 0.021803826 0.030653842
0.02041097 -0.0071849544 0.02334738 -0.0047048265 -0.0123493895 -0.015000143 0.009070348 -0.003973623
-0.018538201 0.0008094027 0.0126081 -0.025576605 0.006049922 -0.023995264 0.0032329664 0.0040114233
-0.026896203 -0.010646015 -0.0098319175 -0.00366928 0.013717159 -0.020660404 -0.019850349 -0.024124648
-0.016253835 -0.042293675 0.011736089 -0.0011996559 -0.015931351 -0.02543485 0.026072295 -0.013065051
-0.0017834224 -0.0019896512 -0.003497467 -0.008090088 0.0041539236 -0.005296963 -0.011045357 -0.0037082478
-0.0006897888 0.010383274 -0.017323246 -0.005083453 -0.010449986 -0.010180069 0.018831113 -0.0124223605
-0.017416174 0.008312692 -0.02461296 0.0012202299 -0.0022013546 -0.014686552 -0.0144005045 -0.035521496
-0.005017622 -0.008607536 0.019986333 -0.012488602 0.0023880505 -0.010939137 -0.002376381 -0.023291048
0.0068661766 -0.016745403 -0.012287603 -0.022985894 -0.024317008 0.0007509226 -0.010953825 -0.043486796
00000000: 4cd0 04bd bac6 863b dc8b 563c 8886 2abc
00000010: 9cae e4bb a744 073c b15c 7ebc f2bb 73bc
00000020: 73c6 31bc 28b9 5b3c d76a 3cbc dd05 9bbb
00000030: cdc1 98bc 2b70 023c eef5 fa3a 0354 2f3d
00000040: f7d6 69bb bf76 13bc 9522 2cbc 0b87 a9bc
00000050: 7112 cebc 87af e3bc dc65 30bb 5cb6 b1bc
00000060: 98cf 64ba d2f5 4f3b 4b26 1c3c 9222 8ebc
00000070: 99b4 943b 024f 4f3a cc4e f9bc 9819 2a3d
00000080: 2ada babc aef5 a6bc 40d3 80bc 5365 dcbc
00000090: 6790 9f3a 6d89 2e3c 688a 30bb d836 743c
000000a0: d38e 043c c0cb 28bb 86a4 c0bc 8dd4 eab9
000000b0: cfef b2bc e456 76bc 1bec 9dbc 3dff 883c
000000c0: d3ed 26bc ea84 0ebc a008 5fbc dad9 a7bc
000000d0: 6a9a 07bd 14b3 13bb 88fb 07bc 191a 10bc
000000e0: a136 77b9 1202 fe3c 860d b03d 89e7 2fbc
000000f0: 2910 d5bb bbb8 593c 9de2 76bc c556 063d
00000100: 1e1d 813b 01db b13b f948 0dbb d45d 9dbc
00000110: 8f25 973a 243d 8ebd ba44 243c c865 ae3b
00000120: 5c7d bfbc 2fa6 32bc efd2 1bbc ff3b dbbc
00000130: cfce 503a 7872 c0bc 58e8 6bba 036c 97bc
00000140: def4 35bc 76fb ed3a 40cd a4bc 935c 9abc
00000150: e225 febc 5633 e2bb 28f8 06bc c604 8bbb
00000160: 7d4c 3fbc 6e13 28bc c6f3 8cbc 62ae ccbc
00000170: 05a3 1e3d b368 bcbb aa5d 00bd 1882 52bc
00000180: c4b5 7abc 5b0c 1abc 82a6 ff3a caea bf3a
00000190: 0d55 57bc f468 45bc 8217 8bbc 8d73 31bb
000001a0: e8c3 e0bc 3912 c5bc 247c 00bd 5940 973d
000001b0: ad4f ec3b 08e1 333c f990 783c bf8f c9bc
000001c0: a9b5 d93a f78c c23b e18f 4ebb d8de d7bb
000001d0: b3b4 a0bc d596 c9bb 001b 563c 9514 94bb
000001e0: eb94 a4bc ae5f b1bc 39da 863b 350b 51bc
000001f0: 40b3 cfbc d3e1 69bc f222 6bbb 41ae ceba
00000200: d832 97bc 0587 dbbb 94c7 bdbc 4e7d ca3c
00000210: 1e85 093c fcac 65bc 0b86 c8bc 0336 ae3c
00000220: a853 08bc e81c debc fb5d e43c c7f0 9fbc
00000230: ef71 e6ba afc0 a3bc 26fc 023c beeb 89bc
00000240: 036c e3bb 10db 013c 6755 b8bc 9d94 c1bc
00000250: 78ab 80bc 1fd6 183c 3b9c 1b3b ea67 46bc
00000260: 3e43 5d3a 529a 9bbc 8089 473c cf8a 1ebc
00000270: 5afe 0f3c fa59 8f3b 277a a2bc 797b bcbc
00000280: 4942 93bc 3e4a 70bb ee93 dcbc 821d ec3a
00000290: a401 a33a a2f6 2abc 2041 5abc 902b 4b3d
000002a0: 5aa0 52ba 114b b2bc fcd0 c4bc 6aea ac3b
000002b0: 6e6b 14bc 2799 d03b 7d45 2d3d 8225 323c
000002c0: f294 63ba 16c6 79bb 6650 65bc 660f 92bb
000002d0: 5d03 733c f12e 89bc f09d b23c c41d fb3c
000002e0: e834 a73c c46f ebbb 0143 bf3c f22a 9abb
000002f0: 1855 4abc 29c3 75bc cc9b 143c 2a35 82bb
00000300: 6ddd 97bc 192e 543a 3492 4e3c 0786 d1bc
00000310: 6d3e c63b b791 c4bc 2de0 533b 4272 833b
00000320: 6d55 dcbc a06c 2ebc 0d16 21bc 4e78 70bb
00000330: efbd 603c 0240 a9bc 339d a2bc 0ea1 c5bc
00000340: c326 85bc 223c 2dbd ba48 403c c63d 9dba
00000350: 7782 82bc bf5c d0bc 9195 d53c cc0e 56bc
00000360: bac1 e9ba cf64 02bb c235 65bb 4a8c 04bc
00000370: a31d 883b 2592 adbb 96f7 34bc 1306 73bb
00000380: f1d2 34ba 9c1e 2a3c 7be9 8dbc 1893 a6bb
00000390: 6b36 2bbc 4eca 26bc b543 9a3c 2887 4bbc
000003a0: 5dac 8ebc f531 083c 1ea1 c9bc 1ff0 9f3a
000003b0: 9a44 10bb dd9f 70bc 18f0 6bbc fd7e 11bd
000003c0: dd6a a4bb 9f06 0dbc 61ba a33c fe9c 4cbc
000003d0: d780 1c3b 113a 33bc 0fbd 1bbb decc bebc
000003e0: aafd e03b a82d 89bc f151 49bc ea4c bcbc
000003f0: 7634 c7bc 90d9 443a ac77 33bc 361f 32bd

shared_layers.3.weight f4 [256, 256]
0.03711633 0.010347535 0.03395902 0.12744641 0.008798903 0.048476573 -0.023883792 0.031113653
-0.009448238 0.20062412 0.07082472 0.15186068 0.046152808 -0.017554326 0.088008516 0.11857474
-0.0768885 -0.18129458 0.012674412 -0.012294394 0.065886304 0.009343467 -0.06282329 -0.043521494
-0.008421686 -0.07069632 0.010712092 0.2668642 -0.075612 0.09609617 -0.10235623 0.06986447
-0.06584409 -0.06791472 -0.17782749 -0.12495172 -0.07278227 0.08461038 0.04200501 -0.032261357
0.15128736 0.009294902 -0.050005894 -0.007194335 0.09280459 -0.06689129 -0.04773612 -0.032130875
0.020577665 0.16304386 0.23213223 -0.0034673484 0.08223889 -0.0004525965 0.0248222 -0.0041250847
-0.028217169 0.11858293 0.056907937 -0.037353575 -0.09593009 0.018202748 -0.06419212 -0.114857085
0.010396659 -0.077371016 0.044585794 -0.048528437 -0.13869826 0.032190636 -0.16561541 0.15852866
-0.0223805 -0.015993498 0.05468226 0.03711694 -0.020651622 0.12876295 0.017337296 0.18010949
0.13690957 0.085056216 0.0077910083 0.2379928 -0.074889235 0.0042794403 0.051808402 -0.033330984
-0.09361986 -0.049099416 0.015291029 -0.08587777 0.070907116 0.08944617 0.04496236 -0.04045964
0.041418597 -0.08886514 0.19072622 0.112419985 -0.047031745 -0.110929854 -0.045871407 0.05490327
-0.14752735 0.16771565 -0.05935226 -0.07964298 0.019378163 -0.02407204 0.035475872 -0.070746765
0.11298568 0.23283726 0.077598095 -0.10980266 0.08424154 0.0782173 -0.104619324 -0.07962978
-0.06543442 -0.06049946 0.02612453 -0.0693457 -0.113777764 0.046791445 -0.014460519 0.08375186
-0.11070568 0.048482444 0.057186928 -0.058082514 0.00033744532 -0.082775176 0.21545899 0.045473397
-0.09665296 0.040796176 0.06457835 0.024088321 0.06839305 0.07787614 0.146079 -0.102833524
0.16058646 -0.0045618494 0.059662238 0.16006064 -0.02789344 0.0715165 -0.018197987 0.051291186
0.15894698 -0.09328424 0.0018152269 -0.006364156 0.106920235 0.010978031 -0.14212814 0.15232639
-0.09902726 -0.07113461 -0.0125604775 0.09400675 0.04727613 0.07691739 0.028998852 0.09564045
0.13527577 0.029747916 0.032253936 -0.09702322 0.109644614 -0.005952956 -0.061045848 0.02263703
0.086053915 -0.044027098 0.10039816 -0.04911295 -0.09184449 -0.089702874 0.1758159 0.084540784
0.07698968 -0.033240672 -0.14074208 0.073492385 -0.04778731 0.09183447 0.06803779 -0.02819633
-0.045748476 -0.089897454 -0.029196784 0.106789164 -0.21346481 0.029822165 0.03465328 -0.03823039
0.027370837 -0.032635562 -0.16437419 -0.11209205 0.08231704 0.04331279 -0.095101476 -0.11860174
0.07177567 -0.0033578484 -0.14005873 0.061093852 0.222588 0.07336442 0.08043739 0.043885708
-0.0054415474 0.0769398 -0.015908614 -0.19701901 -0.0023725184 -0.26437545 -0.01982655 0.030625068
-0.13860635 0.07160959 0.04569227 -0.05412954 0.20008615 0.045500856 0.061292652 -0.06413481
0.12343871 -0.10099522 -0.006197375 -0.025206605 -0.087902784 -0.056884844 0.092702426 -0.08267778
-0.072997555 0.045421686 -0.035305053 -0.12628794 0.059407137 0.017867677 0.19171736 -0.12350659
-0.12604995 0.0490653 -0.020186726 -0.012237348 0.1341042 -0.07827766 -0.04447292 -0.049149048
00000000: 4b07 183d b588 293c 9d18 0b3d 5081 023e
00000010: 4629 103c 5f8f 463d f1a7 c3bc 0fe2 fe3c
00000020: c8cc 1abc 6970 4d3e 8d0c 913d 5e81 1b3e
00000030: ba0a 3d3d 17ce 8fbc cf3d b43d 50d7 f23d
00000040: b877 9dbd 49a5 39be 56a8 4f3c 6d6e 49bc
00000050: 66ef 863d 5715 193c 7fa9 80bd 9843 32bd
00000060: 1cfb 09bc 3bc9 90bd c581 2f3c 6da2 883e
00000070: 77da 9abd 12ce c43d 25a0 d1bd 1a15 8f3d
00000080: 44d9 86bd df16 8bbd 6918 36be b0e6 ffbd
00000090: df0e 95bd 3548 ad3d 720d 2c3d 7c24 04bd
000000a0: 13eb 1a3e a549 183c fbd2 4cbd 75be ebbb
000000b0: 5510 be3d 4dfe 88bd f386 43bd aa9b 03bd
000000c0: 7e92 a83c f8f4 263e 12b4 6d3e 743c 63bb
000000d0: dd6c a83d 794a edb9 ed57 cb3c b82b 87bb
000000e0: b127 e7bc 9bdb f23d 4c18 693d 1000 19bd
000000f0: ff76 c4bd ee1d 953c 2977 83bd 313a ebbd
00000100: c056 2a3c b274 9ebd 989f 363d c1c5 46bd
00000110: eb06 0ebe 54da 033d 1697 29be 5655 223e
00000120: 4f57 b7bc cc04 83bc 81fa 5f3d ef07 183d
00000130: 972d a9bc 6fda 033e f206 8e3c 9f6e 383e
00000140: 0632 0c3e f431 ae3d b74b ff3b 62b4 733e
00000150: 875f 99bd 8c3a 8c3b 0c35 543d 1286 08bd
00000160: c5bb bfbd 781c 49bd 3987 7a3c afe0 afbd
00000170: c037 913d 8e2f b73d 742a 383d 02b9 25bd
00000180: 8ca6 293d edfe b5bd bc4d 433e 733c e63d
00000190: 5ca4 40bd 312f e3bd a8e3 3bbd 40e2 603d
000001a0: 6911 17be a7bd 2b3e 5b1b 73bd dc1b a3bd
000001b0: f4be 9e3c ba32 c5bc 264f 113d aee3 90bd
000001c0: 0965 e73d e46c 6e3e c0eb 9e3d 38e0 e0bd
000001d0: d486 ac3d 6430 a03d a842 d6bd f014 a3bd
000001e0: 7b02 86bd 48ce 77bd 1c03 d63c 1e05 8ebd
000001f0: 5104 e9bd 63a8 3f3d d0eb 6cbc 1886 ab3d
00000200: a9b9 e2bd 8795 463d d73c 6a3d eee7 6dbd
00000210: 25eb b039 0886 a9bd 48a1 5c3e 5042 3a3d
00000220: fdf1 c5bd e419 273d a741 843d df54 c53c
00000230: a811 8c3d 877d 9f3d bc95 153e 629a d2bd
00000240: c770 243e 917b 95bb 6460 743d f0e6 233e
00000250: c980 e4bc 3e77 923d f213 95bc b516 523d
00000260: ffc2 223e cf0b bfbd e8ec ed3a 698a d0bb
00000270: fff8 da3d 33dd 333c 0a8a 11be 73fb 1b3e
00000280: cece cabd 06af 91bd 76ca 4dbc 9c86 c03d
00000290: 9ea4 413d dd86 9d3d 008f ed3c 24df c33d
000002a0: bb85 0a3e e7b1 f33c b41c 043d 1cb4 c6bd
000002b0: 5b8d e03d 0411 c3bb 360b 7abd 4b71 b93c
000002c0: 093d b03d c255 34bd 8d9d cd3d a92a 49bd
000002d0: f718 bcbd 24b6 b7bd 1509 343e b823 ad3d
000002e0: c4ac 9d3d 5f27 08bd b11e 10be 2d83 963d
000002f0: a0bc 43bd b613 bc3d 6657 8b3d fdfb e6bc
00000300: c162 3bbd 281c b8bd 182e efbc 47b4 da3d
00000310: 8596 5abe 9d4d f43c 99f0 0d3d 7897 1cbd
00000320: ce38 e03c deac 05bd b551 28be 8490 e5bd
00000330: d695 a83d c168 313d 90c4 c2bd 78e5 f2bd
00000340: 1fff 923d 590f 5cbb 8e6b 0fbe 8c3d 7a3d
00000350: 1cee 633e 1640 963d 5cbc a43d 80c1 333d
00000360: 024f b2bb 9d92 9d3d c852 82bc 5abf 49be
00000370: 417c 1bbb 385c 87be 4a6b a2bc 6ce1 fa3c
00000380: d3ee 0dbe 0ca8 923d d127 3b3d f0b6 5dbd
00000390: 62e3 4c3e 1b5f 3a3d 010e 7b3d 1c59 83bd
000003a0: 6fcd fc3d 95d6 cebd 5913 cbbb 157e cebc
000003b0: 6006 b4bd 1500 69bd c5da bd3d f852 a9bd
000003c0: be7f 95bd 170c 3a3d 089c 10bd a051 01be
000003d0: e654 733d 3c5f 923c 8e51 443e 06f1 fcbd
000003e0: 3d13 01be b2f8 483d a25e a5bc 287f 48bc
000003f0: 9d52 093e 0a50 a0bd 3d29 36bd 8350 49bd

shared_layers.3.bias f4 [256]
-0.010069509 -0.011681801 0.0056418274 0.015826583 -0.009740697 7.919478e-06 -0.0015217158 -0.0059216754
-0.0005043489 0.0063249585 -0.0053251437 0.0025615995 0.008568914 0.0019999216 0.0062095043 0.00066233426
0.021641372 0.0010975429 0.007537769 0.0021138554 -0.007098236 -0.003914614 0.010625398 0.012537689
-0.0049546873 0.0055230134 -0.001111906 -0.0133889355 0.017246276 0.0018997465 -0.013576174 0.0072435047
-0.00022862032 0.018962242 0.018142728 -0.0014773594 -0.011032337 -0.0045353696 -0.0064912266 0.01133834
0.0020595412 0.012898028 -0.008445332 0.0040261764 0.016027667 0.0005536553 0.0050374595 0.007252855
0.0069401744 0.008001107 0.011780703 0.028795818 -0.010198621 -0.00812319 -0.0010673815 0.0062576067
0.006180645 -0.006477471 0.00624904 0.017814366 0.006779762 0.0022772935 0.014244731 0.0023942336
0.013142731 0.0040783 0.0022337781 -0.000867905 0.0016946199 0.00030677588 0.008057425 0.007982379
-0.0028520604 0.004071301 0.004352491 -0.0021965196 -0.012338874 0.008088713 0.0027727098 0.0016813058
-0.0018821983 -0.008440163 -0.005719524 -0.003999607 -0.0057280483 -0.0022572419 -0.010636353 -0.006143342
-0.010529562 0.0067642094 0.013608886 -0.0008288871 -0.0035545453 0.0015673812 0.0060194866 0.00063525204
-0.006804111 -0.00391173 0.0034644045 0.0008203442 -0.0052667996 0.0064553926 0.003699416 0.0043955455
0.004692434 0.00096906326 -0.004938358 -0.0043442496 -0.007625745 0.008149165 0.002560876 0.008813541
0.00031365931 -0.008921974 0.00011017392 -0.0061330334 -0.002317927 -0.0016168042 -0.0025276274 0.010336407
0.0050120777 -0.007526949 0.017979607 -0.0010316847 0.00030350912 0.0024546888 0.014036735 -0.000858137
0.013208191 0.0042983675 0.004861599 0.0024835563 -0.0029342105 0.009343119 0.007004105 0.014461682
0.01066118 -0.01804599 -0.0018601172 -0.0001379603 0.0019842256 -0.0028117504 0.015309499 -0.0018460987
-0.002686443 0.004230805 0.004998297 0.00915656 0.007515184 0.006687037 0.0034689838 -0.005574791
0.016382553 -0.003919573 0.00022362004 -0.0007802966 0.0015353642 0.020760842 -0.009146938 0.0101331845
-0.0042486694 -0.0031377594 0.0078783585 0.0056213164 0.0015133343 0.008243617 0.00068814197 0.005265242
-0.008169483 0.018705487 -0.002926011 0.0068984604 0.006507807 -0.00039176375 -0.007978601 0.012217125
-0.008303185 0.016878195 0.006497062 0.0014664584 -0.0031642797 0.008983922 -0.000554883 0.010428591
0.021313548 0.00058941223 0.005445567 0.0020503507 -0.009791888 -0.00696986 -0.0031263751 0.0031588303
0.005624685 0.00787392 -0.00247092 -0.00985999 0.0026768853 0.022791473 0.0020701601 -0.009819209
-0.003452639 -0.01192274 -0.0019603919 -0.0122047495 6.225491e-07 0.010636883 0.008736496 0.010205579
0.004822187 0.011656125 -0.009719199 0.0075241337 0.0009693521 -0.009440252 0.008427677 0.01696573
-0.0016280111 -0.01049374 0.003943716 0.0119894445 0.0123416325 -0.007207923 0.012030741 0.007932772
-0.0028862557 -0.0018165968 -0.0016385003 0.013399157 -0.0044314098 -0.006432425 -0.0034502826 0.0146724945
0.0101831155 0.009507785 0.016059108 0.00067573966 -0.0009865724 -0.014117184 0.003752843 0.0012704651
-0.0023089047 -0.00015497123 0.0017256814 -0.014597273 -0.0067682923 -0.005876413 0.005708923 0.004153951
0.0019564324 -0.0074099107 0.0021611138 -0.013751873 0.007768192 -0.004769103 -0.013728227 -0.013766185
00000000: 95fa 24bc 0665 3fbc 14df b83b c0a6 813c
00000010: 7297 1fbc e6dd 0437 4f74 c7ba 9d0a c2bb
00000020: 4836 04ba 9941 cf3b 8b7e aebb 82e0 273b
00000030: a164 0c3c 1e11 033b 1979 cb3b 80a0 2d3a
00000040: 3f49 b13c 6edb 8f3a 64ff f63b 9c88 0a3b
00000050: 5298 e8bb 2a46 80bb 2616 2e3c e16a 4d3c
00000060: ee5a a2bb 65fa b43b 60bd 91ba 445d 5bbc
00000070: 1048 8d3c ea00 f93a 9a6e 5ebc ec5a ed3b
00000080: cdb9 6fb9 b456 9b3c 0fa0 943c f5a3 c1ba
00000090: fac0 34bc 709d 94bb 5bb4 d4bb 72c4 393c
000000a0: 5ef9 063b 4052 533c 4a5e 0abc 04ee 833b
000000b0: 744c 833c 2e23 113a 4611 a53b 5ca9 ed3b
000000c0: 676a e33b 1317 033c da03 413c 35e5 eb3c
000000d0: 1e18 27bc 2117 05bc 61e7 8bba 9c0c cd3b
000000e0: 0287 ca3b f740 d4bb bfc4 cc3b 6fef 913c
000000f0: c428 de3b a53e 153b bb62 693c 93e8 1c3b
00000100: 9c54 573c 43a3 853b 9464 123b 1e84 63ba
00000110: 021e de3a c3d6 a039 4a03 043c 86c8 023c
00000120: a2e9 3abb 8c68 853b 579f 8e3b 7cf3 0fbb
00000130: fd28 4abc 8586 043c 5ab6 353b 435f dc3a
00000140: 18b4 f6ba 9c48 0abc d86a bbbb 230f 83bb
00000150: 5ab2 bbbb 3cee 13bb 1944 2ebc 164e c9bb
00000160: 2f84 2cbc 4da6 dd3b cef7 5e3c ac49 59ba
00000170: 60f3 68bb 9670 cd3a 1d3f c53b 0b87 263a
00000180: 05f5 debb f82d 80bb 100b 633b 5e0c 573a
00000190: 1e95 acbb c287 d33b e771 723b 8208 903b
000001a0: fdc2 993b bc08 7e3a f3d1 a1bb 355a 8ebb
000001b0: 63e1 f9bb 1384 053c 5fd4 273b ac66 103c
000001c0: a472 a439 792d 12bc 2c0d e738 9df7 c8bb
000001d0: 5de8 17bb f2ea d3ba 8da6 25bb 095a 293c
000001e0: 5b3c a43b a0a4 f6bb f849 933c 9839 87ba
000001f0: 4e20 9f39 d8de 203b 55fa 653c 99f4 60ba
00000200: 2b67 583c 52d9 8c3b 0c4e 9f3b 29c3 223b
00000210: e24b 40bb e213 193c b182 e53b b1f0 6c3c
00000220: 3bac 2e3c 2fd5 93bc 2dcf f3ba 70a9 10b9
00000230: c809 023b 5845 38bb b1d4 7a3c cbf8 f1ba
00000240: 090f 30bb 91a2 8a3b c1c8 a33b 6505 163c
00000250: ef41 f63b ef1e db3b e457 633b bdac b6bb
00000260: b434 863c c36f 80bb 8c7b 6a39 d28c 4cba
00000270: 463e c93a a412 aa3c 0add 15bc a805 263c
00000280: 6c38 8bbb dea2 4dbb 3b14 013c 0533 b83b
00000290: 135b c63a 3c10 073c 6d64 343a 0d88 ac3b
000002a0: 4cd9 05bc 403c 993c 52c2 3fbb 7b0c e23b
000002b0: 713f d53b a465 cdb9 aeb8 02bc 562a 483c
000002c0: 150a 08bc 2444 8a3c 4ee5 d43b 2e36 c03a
000002d0: ce5f 4fbb 4d31 133c 9175 11ba aedc 2a3c
000002e0: c099 ae3c c982 1a3a ba70 b23b 2d5f 063b
000002f0: 286e 20bc 6c63 e4bb dfe3 4cbb 6104 4f3b
00000300: 474f b83b 9d01 013c 29ef 21bb cc8b 21bc
00000310: af6e 2f3b 2fb5 ba3c 86ab 073b bfe0 20bc
00000320: ac45 62bb 9957 43bc eb79 00bb 6ef6 47bc
00000330: 401d 2735 5246 2e3c 8523 0f3c 4d35 273c
00000340: 7003 9e3b 55f9 3e3c 463d 1fbc 028d f63b
00000350: 1e1c 7e3a 49ab 1abc 3d14 0a3c b7fb 8a3c
00000360: fd62 d5ba f0ed 2bbc 4a3a 813b 606f 443c
00000370: 8f34 4a3c 7130 ecbb 961c 453c 75f8 013c
00000380: 5627 3dbb e01a eeba f2c2 d6ba 2388 5b3c
00000390: 5c35 91bb 18c7 d2bb 231e 62bb e764 703c
000003a0: 15d7 263c 8ac6 1b3c 648e 833c 1f24 313a
000003b0: e04f 81ba c34b 67bc 42f2 753b bc85 a63a
000003c0: fe50 17bb c67f 22b9 4230 e23a 6729 6fbc
000003d0: 8dc8 ddbb ed8e c0bb eb11 bb3b de1d 883b
000003e0: 7d37 003b d6ce f2bb 79a1 0d3b 894f 61bc
000003f0: 518c fe3b 2346 9cbb 5bec 60bc 918b 61bc

shared_layers.4.weight f4 [256]
0.9865892 0.9669765 1.0040294 1.0255332 0.9825012 1.0006018 0.9848426 0.99385816
0.99210185 0.98465466 0.98443794 1.0123789 1.014354 0.99378633 0.9876368 0.9986756
1.0093241 0.9977543 0.99278396 1.0084815 0.9927796 1.0129629 1.0430485 1.0728862
0.9927904 0.9904832 0.9891417 0.9749889 0.97762024 1.0136241 1.0023037 0.9975028
0.98016953 1.0063555 0.97084755 1.0186375 0.9859816 0.9789306 0.99437106 1.0306237
1.0181233 1.0190661 0.9910207 1.0290539 1.0145123 0.995905 1.0008218 1.0078691
1.0038389 1.0051385 1.0257087 0.9909128 0.98622906 0.98314625 1.0039822 1.0414631
1.0180769 1.0146315 0.98451525 1.0040281 1.0195384 1.0248097 1.0144807 0.9852569
1.0094494 0.9914098 0.9991578 0.99963534 1.0030341 1.0187203 1.0015224 1.0033637
1.0054749 1.0402899 1.0023355 0.990933 0.99993443 1.0001056 1.0073918 1.0127105
0.98326063 1.0108371 0.9862112 0.9830066 1.0075547 0.9942584 1.005857 0.9925444
0.986785 1.0035928 1.0111972 0.9771889 0.98500884 0.9983274 1.0008776 0.99438745
0.9820556 0.99727154 0.99771464 0.9946616 0.9939634 1.0005176 0.996093 1.0023203
0.97786844 1.0281906 0.9783938 0.99053013 1.0000807 0.99198735 0.9775102 1.010437
0.9788006 0.9923927 1.0011019 1.0099665 0.98501456 0.9812875 1.0212 1.0003109
0.9947196 0.9790948 1.0074261 0.9961204 0.9955645 0.9934147 1.0121179 0.9889884
1.019744 0.98574096 1.0197464 1.0009066 1.00051 1.0223708 0.9631418 1.0026062
0.9990873 0.9806249 0.9933518 0.9913084 1.0089095 0.978832 1.0077115 0.99041146
1.0010551 0.9614124 1.0031627 0.99079275 1.0051908 1.019291 1.0010973 0.9962485
1.0146517 1.001727 1.0116724 1.067211 1.0256201 0.9848926 0.9940892 1.0035427
0.97774696 1.0002339 1.00584 1.0050508 1.0005382 1.023534 0.99947953 0.9967552
1.0113629 1.014443 1.0022146 1.0079105 1.0021558 0.995798 0.97335935 0.9664309
0.9806824 1.0299128 0.98706657 0.99104977 1.0030446 1.0170618 1.0566753 1.0014868
1.0959321 0.9967116 1.0024995 0.98050785 0.98678225 0.9915741 0.9844473 1.0150656
1.0047203 1.073792 1.023216 0.9962358 1.0198971 1.014595 1.0114146 0.9941217
0.9808543 0.9799852 0.9948142 1.0028768 1.000579 0.9985455 1.0149132 1.0096927
1.0125757 1.0140543 1.0019784 0.99676085 0.970145 0.9992862 1.0070161 1.0057174
1.0099889 0.98394465 0.9985347 1.003543 1.087657 0.985743 1.0252023 1.0157641
0.9812419 0.9880565 0.9945911 0.96782166 0.9901951 0.99052095 0.9923493 0.98273945
1.0061861 1.0059631 1.0274357 1.0018893 0.9872172 0.9873572 1.0050447 0.9891538
0.96732223 0.9788631 0.9791881 0.97186387 0.99260914 0.99254745 0.9941289 1.0063725
1.011344 1.0040144 0.99344057 0.9568656 1.0204302 0.9904314 0.97886056 0.9850916
00000000: 1c91 7c3f c68b 773f 0984 803f ac44 833f
00000010: 3385 7b3f b813 803f a51e 7c3f 7d6d 7e3f
00000020: 63fa 7d3f 5412 7c3f 2004 7c3f a295 813f
00000030: 5ad6 813f c868 7e3f c4d5 7c3f 34a9 7f3f
00000040: 8831 813f d36c 7f3f 1727 7e3f ec15 813f
00000050: ce26 7e3f c5a8 813f 9d82 853f 5654 893f
00000060: 8327 7e3f 4f90 7d3f 6438 7d3f df98 793f
00000070: 5245 7a3f 6fbe 813f 7d4b 803f 585c 7f3f
00000080: 64ec 7a3f 42d0 803f 7789 783f b762 823f
00000090: 4a69 7c3f 329b 7a3f 1a8f 7e3f 7aeb 833f
000000a0: dd51 823f c270 823f 88b3 7d3f 0ab8 833f
000000b0: 8adb 813f a1f3 7e3f ee1a 803f db01 813f
000000c0: cb7d 803f 61a8 803f 6c4a 833f 76ac 7d3f
000000d0: 8279 7c3f 79af 7b3f 7d82 803f aa4e 853f
000000e0: 5850 823f 72df 813f 3109 7c3f fe83 803f
000000f0: 3c80 823f f72c 833f 81da 813f cc39 7c3f
00000100: a335 813f 08cd 7d3f cec8 7f3f 1ae8 7f3f
00000110: 6c63 803f 6d65 823f e331 803f 396e 803f
00000120: 67b3 803f 3828 853f 884c 803f c9ad 7d3f
00000130: b4fb 7f3f 7603 803f 37f2 803f 7fa0 813f
00000140: f8b6 7b3f 1c63 813f 5678 7c3f 52a6 7b3f
00000150: 8df7 803f b887 7e3f ecbf 803f 6417 7e3f
00000160: f19d 7c3f bb75 803f e96e 813f 0d29 7a3f
00000170: 8a29 7c3f 6292 7f3f c21c 803f 2d90 7e3f
00000180: ff67 7b3f 304d 7f3f 3a6a 7f3f 25a2 7e3f
00000190: 6374 7e3f f610 803f f3ff 7e3f 084c 803f
000001a0: 9655 7a3f c09b 833f 0478 7a3f 6293 7d3f
000001b0: a502 803f e2f2 7d3f 1c3e 7a3f 0056 813f
000001c0: ad92 7a3f 730d 7e3f 1b24 803f 9546 813f
000001d0: ea29 7c3f a835 7b3f aeb6 823f 300a 803f
000001e0: f2a5 7e3f f5a5 7a3f 57f3 803f bf01 7f3f
000001f0: 51dd 7e3f 6d50 7e3f 148d 813f 582e 7d3f
00000200: f986 823f 8559 7c3f 0d87 823f b51d 803f
00000210: b610 803f 0cdd 823f 7690 763f 6655 803f
00000220: 2fc4 7f3f 3c0a 7b3f 4e4c 7e3f 63c6 7d3f
00000230: f223 813f bc94 7a3f b1fc 803f 9b8b 7d3f
00000240: 9322 803f 1f1f 763f a367 803f 98a4 7d3f
00000250: 18aa 803f 2178 823f f523 803f 240a 7f3f
00000260: 1be0 813f 9738 803f 7b7e 813f 5f9a 883f
00000270: 8547 833f ec21 7c3f a17c 7e3f 1674 803f
00000280: a04d 7a3f aa07 803f 5dbf 803f 81a5 803f
00000290: a311 803f 2a03 833f e4dd 7f3f 592b 7f3f
000002a0: 5774 813f 45d9 813f 9148 803f 3603 813f
000002b0: a446 803f 9eec 7e3f 142e 793f 0468 773f
000002c0: 000e 7b3f 2fd4 833f 65b0 7c3f 70b5 7d3f
000002d0: c463 803f 152f 823f 2341 873f b830 803f
000002e0: 8147 8c3f 7e28 7f3f e751 803f 9002 7b3f
000002f0: c39d 7c3f cdd7 7d3f bd04 7c3f abed 813f
00000300: ad9a 803f 0472 893f bef8 823f 4f09 7f3f
00000310: fd8b 823f 40de 813f 0976 813f c27e 7e3f
00000320: 4419 7b3f 4fe0 7a3f 25ac 7e3f 445e 803f
00000330: f912 803f aea0 7f3f ade8 813f 9c3d 813f
00000340: 159c 813f 88cc 813f d440 803f b82b 7f3f
00000350: 6c5b 783f 38d1 7f3f e7e5 803f 59bb 803f
00000360: 5147 813f cce3 7b3f f89f 7f3f 1974 803f
00000370: 5838 8b3f a759 7c3f d439 833f 8f04 823f
00000380: ab32 7b3f 45f1 7c3f 869d 7e3f 29c3 773f
00000390: 6d7d 7d3f c892 7d3f 9b0a 7e3f d094 7b3f
000003a0: b5ca 803f 66c3 803f 0383 833f e93d 803f
000003b0: 44ba 7c3f 71c3 7c3f 4ea5 803f 2f39 7d3f
000003c0: 6ea2 773f c696 7a3f 12ac 7a3f 12cc 783f
000003d0: a21b 7e3f 9717 7e3f 3b7f 7e3f d0d0 803f
000003e0: b873 813f 8b83 803f 1f52 7e3f 25f5 743f
000003f0: 759d 823f ea8c 7d3f 9b96 7a3f f72e 7c3f

shared_layers.4.bias f4 [256]
-0.01310801 -0.029078826 0.002690248 0.014822533 -0.011753877 -0.009336205 -0.0047282977 -0.012492221
-0.0021699502 -0.003897447 -0.014266837 -6.5827007e-06 0.005257916 -0.00093283836 -0.017433988 -0.014527582
0.014935668 -0.005841666 0.0034925924 0.0006042775 -0.01930753 -0.01429882 0.0051271603 0.009808425
-0.0104755545 0.0027552792 -0.013894576 -0.020612177 -0.001288904 -0.003971483 -0.01577739 0.0038787853
-0.020962968 0.0023699086 -0.0016185204 -0.007614634 -0.028987912 -0.0096570775 -0.013950484 0.01043277
-0.0035517376 0.007445886 -0.013020905 -0.0023362578 0.0039285393 -0.0065142023 0.000336701 0.005345625
0.0041815713 0.0043878676 0.00675617 0.0042610485 -0.0135624455 -0.022419529 -0.0032051273 0.002844669
-0.0016823608 -0.010704796 -0.0021465346 0.012587001 0.0053903447 -0.0058724107 0.0108058285 0.00012890686
0.006030772 -0.005305623 -0.0012144328 -0.008695355 -0.0018958027 -0.0010823638 0.004415091 0.0078787
-0.00872728 -0.0047925073 0.0012039617 -0.0045747957 -0.014795558 0.005495998 -0.0058523123 -0.0010415757
-0.0067901504 -0.020170491 -0.010462492 -0.010464103 -0.0096965125 -0.0073501216 -0.015040148 -0.013240426
-0.01446684 0.0002955774 0.009199958 -0.060768727 -0.009344276 -0.0035905999 0.00056539924 -0.0018388712
-0.017078351 -0.010290604 -0.0034832847 -0.0062398072 -0.009324698 0.0037854856 -0.0009240011 0.00078207254
-0.013026856 -0.004428219 -0.009165742 -0.027921593 -0.015504306 -0.030109912 -0.011388679 0.0065794475
-0.005076779 -0.02860745 -0.002316958 -0.009207113 -0.008011732 -0.008507536 -0.0028619827 0.008395773
-9.839482e-05 -0.019976307 0.015075707 -0.004031238 -0.0039794585 -3.6905796e-05 0.007340586 -0.013256239
0.009821702 -0.0030615928 -0.00017518907 0.0023195937 -0.006957826 0.0054425993 -0.005328616 0.010075105
0.0065875193 -0.03042454 -0.0049258946 -0.00840635 -0.012688205 -0.01373009 0.012503614 -0.0051002223
-0.003675589 -0.017542519 -0.0034556447 0.0058263405 0.004400831 0.001342885 -0.0012316272 -0.008967826
0.015809739 -0.022720007 -0.007219323 -0.0005548864 -0.0038204829 -0.045895014 -0.015597455 0.009642595
-0.009682087 -0.006136596 0.0064907013 0.003753985 -0.0031067692 -0.00035225617 -0.0070240446 0.004575054
-0.025323067 0.00863118 -0.0069126557 0.0056030424 -0.0079141 -0.022675682 -0.021905974 -0.0118420925
-0.013154062 0.015038684 -0.0012019703 -0.0042825984 -0.006356837 0.0063294386 -0.005108259 0.005226528
0.008977027 -0.0048912815 0.0020457949 -0.007246196 -0.0319194 -0.01510692 -0.010992948 -4.573054e-05
0.0031561875 -0.00024897457 -0.0029627546 -0.011652567 -0.003266005 0.016319452 -0.008134208 -0.0147122685
-0.011864517 -0.016506314 -0.0071745454 -0.02492152 -0.0050676344 0.0071066595 0.007574842 0.0045637656
-0.0021589852 0.0063341325 -0.02007665 0.0052315365 -0.01973338 -0.015269067 0.001124887 0.0102087855
-0.0038450125 -0.017400982 -0.0037535992 0.007689146 0.0073621045 -0.012046364 0.010030986 0.0043354053
-0.012922438 -0.0064235576 -0.004201658 -0.0244381 -0.01072694 -0.014254171 -0.009239104 -0.025056642
0.0015574067 0.0019477273 0.013176193 -0.0024636856 -0.008866052 -0.024776703 -0.015236151 -0.0035248485
-0.01996654 -0.021864364 -0.0019138844 -0.037493926 -0.016817464 -0.008118179 0.0003000007 0.0016515984
-0.00048036146 -0.009763821 -0.0032504012 -0.025359986 0.0030344476 -0.0077591147 -0.030565048 -0.016935669
00000000: fbc2 56bc b836 eebc df4e 303b 36da 723c
00000010: 5593 40bc e2f6 18bc d6ef 9abb 2cac 4cbc
00000020: b935 0ebb 4f6c 7fbb 74bf 69bc f8e0 dcb6
00000030: 994a ac3b b989 74ba b9d1 8ebc 1805 6ebc
00000040: bbb4 743c 726b bfbb fae3 643b 6068 1e3a
00000050: d32a 9ebc 9945 6abc bd01 a83b 84b3 203c
00000060: a9a1 2bbc ea91 343b 13a6 63bc deda a8bc
00000070: 71f0 a8ba 3723 82bb 963f 81bc 3833 7e3b
00000080: 88ba abbc 7850 1b3b 8824 d4ba 2e84 f9bb
00000090: 0f78 edbc b838 1ebc 9290 64bc 35ee 2a3c
000000a0: 45c4 68bb 9efc f33b a255 55bc e71b 19bb
000000b0: faba 803b 1775 d5bb 3e87 b039 5a2a af3b
000000c0: 9005 893b 1ac8 8f3b dd62 dd3b 44a0 8b3b
000000d0: 0535 5ebc 29a9 b7bc 1d0d 52bb a06d 3a3b
000000e0: a982 dcba 2b63 2fbc e0ac 0cbb b539 4e3c
000000f0: 7da1 b03b 5a6d c0bb ee0a 313c 2c2b 0739
00000100: c89d c53b cbda adbb 9a2d 9fba f676 0ebc
00000110: 957c f8ba 1ade 8dba 78ac 903b aa15 013c
00000120: defc 0ebc 770a 9dbb 40ce 9d3a 2be8 95bb
00000130: 1169 72bc c617 b43b c1c4 bfbb 7b85 88ba
00000140: e97f debb 963c a5bc df6a 2bbc a171 2bbc
00000150: 1fde 1ebc 4ad9 f0bb f46a 76bc 5fee 58bc
00000160: 5306 6dbc baf7 9a39 6cbb 163c a1e8 78bd
00000170: bc18 19bc 4550 6bbb 4d37 143a 4706 f1ba
00000180: e6e7 8bbc ec99 28bc d247 64bb 4c77 ccbb
00000190: 9ec6 18bc e915 783b aa38 72ba 0004 4d3a
000001a0: 986e 55bc 981a 91bb e92b 16bc d3bb e4bc
000001b0: c605 7ebc 10a9 f6bc 9597 3abc 6898 d73b
000001c0: 1c5b a6bb 2c5a eabc 1bd8 17bb 6ed9 16bc
000001d0: a443 03bc 3163 0bbc 1a90 3bbb 6d8e 093c
000001e0: 5159 ceb8 5aa5 a3bc 1900 773c 7a18 84bb
000001f0: 1e66 82bb 4ccb 1ab8 4c89 f03b b230 59bc
00000200: 34eb 203c 01a5 48bb f5b2 37b9 5304 183b
00000210: 7afe e3bb d557 b23b ac9b aebb 0e12 253c
00000220: 1edc d73b e33c f9bc 6669 a1bb caba 09bc
00000230: 30e2 4fbc 2cf4 60bc f5db 4c3c c41f a7bb
00000240: 27e2 70bb 54b5 8fbc 1978 62bb e3ea be3b
00000250: d934 903b be03 b03a 8d6e a1ba caed 12bc
00000260: 6d83 813c 4f1f babc 1290 ecbb cc75 11ba
00000270: 1161 7abb 69fc 3bbd 788c 7fbc fafb 1d3c
00000280: 9ea1 1ebc 8015 c9bb f3af d43b 6b05 763b
00000290: f09a 4bbb 06af b8b9 f529 e6bb 56ea 953b
000002a0: 5272 cfbc cb69 0d3c 8f83 e2bb ba99 b73b
000002b0: 24aa 01bc 5ac2 b9bc 2874 b3bc 5605 42bc
000002c0: 2384 57bc d064 763c 6e8b 9dba 0a55 8cbb
000002d0: 044d d0bb 2e67 cf3b 2f63 a7bb 4b43 ab3b
000002e0: 6114 133c 0b47 a0bb be12 063b 7f71 edbb
000002f0: ebbd 02bd 0483 77bc c41b 34bc cbce 3fb8
00000300: 0ad8 4e3b cd88 82b9 c62a 42bb 69ea 3ebc
00000310: 790a 56bb 5fb0 853c 5745 05bc ba0b 71bc
00000320: 6463 42bc 4038 87bc 7318 ebbb 3728 ccbc
00000330: 660e a6bb fbde e83b 6136 f83b a48b 953b
00000340: c37d 0dbb 8e8e cf3b c977 a4bc 4f6d ab3b
00000350: e6a7 a1bc 1c2b 7abc f270 933a c042 273c
00000360: 9bfc 7bbb 818c 8ebc f2fe 75bb 3bf5 fb3b
00000370: cf3d f13b 1d5e 45bc 0159 243c 0410 8e3b
00000380: a2b8 53bc b57c d2bb 10ae 89bb 6932 c8bc
00000390: 0cc0 2fbc 548a 69bc 9c5f 17bc 9643 cdbc
000003a0: e621 cc3a e24a ff3a f6e0 573c c975 21bb
000003b0: eb42 11bc 83f8 cabc 0da1 79bc 2501 67bb
000003c0: df90 a3bc e51c b3bc 4edb faba 3b93 19bd
000003d0: c7c4 89bc 1c02 05bc 6a49 9d39 727a d83a
000003e0: 06d9 fbb9 6ff8 1fbc af04 55bb bfbf cfbc
000003f0: 95dd 463b 2c40 febb 8d63 fabc acbc 8abc
