cartpole/checkpoints/model_98.pth (torch, 39170 bytes, 11 tensors)

fc1.weight f4 [64, 4]
0	0xbcf3b51d	-0.029749447
1	0x3e944c6c	0.28964555
2	0x3eeee203	0.46656808
3	0x3d99f7fc	0.075180024
4	0x3df19d88	0.11797625
5	0xbe67f71c	-0.22652858
6	0xbe24df64	-0.16100842
7	0xbe67dcc0	-0.22642803
8	0xbcf06569	-0.029345231
9	0x3dc014ee	0.09378992
10	0x3effffae	0.49999756
11	0x3c7070bd	0.014675316
12	0xbdfa5e9c	-0.122250766
13	0xbe704b5e	-0.2346625
14	0xbe906160	-0.2819929
15	0xbc707d72	-0.014678346
16	0xbdf9dd81	-0.12200452
17	0xbe46aa35	-0.19400866
18	0xbe36673e	-0.17812821
19	0xbe696a30	-0.22794414
20	0xbef75c78	-0.48312736
21	0x3ea49bd7	0.32150146
22	0xbf8d2d4c	-1.1029449
23	0xbe40ba0d	-0.18820973
24	0x3e063a64	0.13108212
25	0xbc1bdf9d	-0.009513763
26	0xbe985ddf	-0.29759118
27	0x3eb33c84	0.35007107
28	0x3e0533ec	0.13008088
29	0x3ef4ed5d	0.47837344
30	0x3d7871f8	0.060655564
31	0x3ec3744f	0.38174674
32	0x3f06f3cb	0.5271575
33	0xbebddd7b	-0.3708304
34	0xbf134efa	-0.57542384
35	0x3eb3e44a	0.35135108
36	0x3d135a72	0.035974927
37	0x3e16441f	0.14674424
38	0x3f14e27e	0.581581
39	0x3db97393	0.09055247
40	0x3dc1117c	0.09427163
41	0x3f268e2e	0.650607
42	0x3e5e1045	0.21685894
43	0x3ed9a242	0.42506605
44	0xbec852bc	-0.3912562
45	0xbea80dfb	-0.32823166
46	0x3f881efc	1.0634456
47	0x3ef0d53b	0.47037682
48	0x3e597799	0.21237029
49	0x3e0052d1	0.12531592
50	0xbd267c49	-0.04064587
51	0x3e7819e6	0.2422863
52	0xbf294f4f	-0.6613664
53	0xbd822056	-0.06353824
54	0xbf2fff79	-0.68749195
55	0xbec61bc0	-0.38693047
56	0x3e34a03e	0.17639253
57	0xbe907891	-0.28216985
58	0xbf8df744	-1.1091084
59	0xbe347b5a	-0.1762518
60	0xbe00720d	-0.12543507
61	0x3caf9a17	0.02143578
62	0xbe8e9a72	-0.27852207
63	0xbe2c269b	-0.16811602
64	0x3e4767a5	0.19473131
65	0xbede02f2	-0.43361622
66	0xbf7363e8	-0.9507432
67	0xbe615dc9	-0.22008432
68	0xbf3b365b	-0.73129815
69	0x3ec305e2	0.38090426
70	0x3e866370	0.2624774
71	0x3ec7b0a7	0.39001963
72	0xbe2c9ce9	-0.16856731
73	0x3c58cba2	0.013232144
74	0xbf0d392d	-0.5516537
75	0xbdb041e2	-0.08606316
76	0xbe827c71	-0.25485566
77	0x3ebc5f2d	0.36791363
78	0x3f3e9729	0.744494
79	0xbcf01d36	-0.029310804
80	0x3ed70ddb	0.42002758
81	0x3e2a92d0	0.16657567
82	0x3f10a543	0.5650217
83	0x3ea0c2ac	0.31398523
84	0xbee628b4	-0.4495293
85	0x3eda4374	0.42629588
86	0xbf840bcc	-1.03161
87	0xbdf34afe	-0.11879538
88	0x3aace0bb	0.0013189533
89	0x3f04484c	0.51672816
90	0x3e84deeb	0.25951323
91	0x3e7d8012	0.24755886
92	0x3e1e899c	0.15482181
93	0x3de4b213	0.111667775
94	0xbf403000	-0.7507324
95	0xbec94f02	-0.3931809
96	0xbdb3e212	-0.08783354
97	0x3d9ca9db	0.07649585
98	0x3ef60502	0.48050696
99	0xbf0a994c	-0.5414016
100	0xbce84746	-0.028354298
101	0x3e38e6b2	0.18056753
102	0xbeb1bca5	-0.34714237
103	0xbcae6455	-0.021288076
104	0x3c614414	0.013749141
105	0x3e9d8010	0.30761766
106	0x3e0800bb	0.13281529
107	0xbc175235	-0.009235908
108	0x3efdb290	0.49550295
109	0xbeee7fd4	-0.465819
110	0xbe88f5b9	-0.26749972
111	0xbea1d77f	-0.31609723
112	0x3db4675a	0.08808775
113	0x3eb05b06	0.34444445
114	0x3edd3e88	0.4321177
115	0xbe1595fe	-0.14607999
116	0xbe94ff05	-0.29100814
117	0x3ea3df6d	0.32006398
118	0x3ebfb418	0.37442088
119	0x3d790478	0.060795277
120	0x3f0d17c7	0.55114406
121	0xbe875d0b	-0.26438174
122	0x3f649a15	0.8929761
123	0x3dfd0f68	0.12356454
124	0x3dc349a7	0.095355324
125	0x3e9bfc79	0.3046606
126	0x3f6ad1f9	0.9172664
127	0x3e89df97	0.26928398
128	0x3d4a9cc4	0.04946591
129	0x3ea76633	0.3269516
130	0x3ed6a24d	0.419207
131	0x3d8df0d4	0.069307
132	0xbe91a8a0	-0.28448963
133	0x3d8b3a2c	0.06798205
134	0xbe210b0b	-0.15726869
135	0x3e134c22	0.14384511
136	0x3eeb7622	0.45988566
137	0xbdbe7da5	-0.093013085
138	0x3e426f93	0.18987875
139	0x3e52f470	0.20601058
140	0x3e475076	0.19464287
141	0xbe3e3a60	-0.18576956
142	0x3e9cf497	0.30655357
143	0x3ba46a09	0.005017523
144	0xbebc69ee	-0.36799568
145	0xbea63940	-0.32465553
146	0x3eee9754	0.4659983
147	0x3ddff414	0.10935226
148	0x3e955db4	0.29173052
149	0x3eea3f2f	0.4575133
150	0xbf755ea6	-0.9584755
151	0xbed86f61	-0.42272475
152	0x3f0219e3	0.5082075
153	0x3eff80d9	0.4990299
154	0x3ec228bb	0.379217
155	0x3ecd079b	0.40044865
156	0x3e2949ba	0.1653203
157	0xbe818c1e	-0.25302213
158	0x3f277675	0.65415126
159	0x3c161adb	0.009161676
160	0xbdb9b188	-0.090670645
161	0x3c0fd880	0.008779645
162	0xbe1dbf7c	-0.15405077
163	0x3c1da3c0	0.009621561
164	0x3d59468f	0.053045806
165	0xbed352cf	-0.41274115
166	0xbf6b92ae	-0.9202069
167	0xbe822352	-0.25417572
168	0x3ef9072d	0.48638287
169	0x3ec85b01	0.3913193
170	0xbf619d4e	-0.8813065
171	0xbe612d9e	-0.21990058
172	0x3eec2c1a	0.46127397
173	0x3de5679d	0.11201403
174	0x3f85ef36	1.0463626
175	0x3ebaf27a	0.3651312
176	0xbe183b89	-0.14866461
177	0x3ec3468a	0.38139755
178	0x3e09d6f4	0.13460904
179	0x3eb62e82	0.35582358
180	0x3e9e6034	0.30932772
181	0xbcd3f7cf	-0.025875
182	0x3f6971cc	0.91189265
183	0x3e369eba	0.17833987
184	0x3f031156	0.5119833
185	0x3ebea487	0.372349
186	0xbec6ce91	-0.38829473
187	0xbee95580	-0.45573044
188	0xbd8e29f5	-0.069415964
189	0xbe9c5fc7	-0.30541822
190	0xbf7a98ad	-0.97889215
191	0xbe9cab6e	-0.3059954
192	0x3e22b56e	0.15889522
193	0xbe2fec79	-0.17180051
194	0x3f001677	0.5003428
195	0xbd8907cc	-0.0669094
196	0xbea1a6d5	-0.31572595
197	0x3df7b1a7	0.12094431
198	0xbe7e848c	-0.2485525
199	0xbe1062f7	-0.14100252
200	0x3f2ea67b	0.6822278
201	0x3d8bc644	0.068249255
202	0xbe7fa4b2	-0.2496517
203	0xbe7ffbb3	-0.2499836
204	0xbdbbbc7c	-0.0916681
205	0xbe640c28	-0.22270262
206	0x3db3e8d0	0.0878464
207	0xbe6a6775	-0.22891028
208	0x3d0b35e5	0.033986945
209	0x3e469ab6	0.19394955
210	0x3ebdddaf	0.37083194
211	0xbe83080f	-0.25592086
212	0xbe7059e5	-0.23471792
213	0xbe4cf9c9	-0.2001716
214	0x3e5acb73	0.21366672
215	0xbebb10e0	-0.36536312
216	0x3d3ad462	0.0456127
217	0x3ee00928	0.43756986
218	0xbda5e2aa	-0.08099873
219	0xbe9b4533	-0.30326232
220	0x3efc4524	0.492715
221	0xbeb92c52	-0.36166626
222	0xbf54efb4	-0.8317826
223	0x3edf1fa4	0.43578827
224	0xbd2f1bdd	-0.042751182
225	0xbe89a448	-0.2688315
226	0xbe112d41	-0.14177419
227	0x3e8d3f9f	0.27587602
228	0xbee03c04	-0.43795788
229	0x3c3699ff	0.011145114
230	0xbf016906	-0.5055088
231	0xbed06c55	-0.4070765
232	0x3eb790a3	0.35852537
233	0xbdca1c11	-0.098686345
234	0xbcd19eb7	-0.025588376
235	0x3b904f3c	0.0044039767
236	0xbe71c788	-0.23611271
237	0x3ec85075	0.39123884
238	0xbe16fc14	-0.14744598
239	0x3e86fc98	0.2636459
240	0xbde3cb29	-0.11122734
241	0xbe796e23	-0.2435842
242	0x3ed55ddb	0.4167317
243	0xbe84430c	-0.25832403
244	0xbdb3d09c	-0.087800235
245	0x3e9168e2	0.28400332
246	0xbe92af8a	-0.2864955
247	0x3e1e5f9c	0.1546616
248	0x3e42cf68	0.19024432
249	0xba62ec84	-0.00086564594
250	0x3eccea50	0.40022516
251	0xbe89b88c	-0.2689861
252	0xbe910372	-0.2832294
253	0x3ee7bc69	0.45260933
254	0x3e26b9ce	0.16281816
255	0x3ecefa64	0.40425408

fc1.bias f4 [64]
0	0x3e81fefe	0.25389856
1	0xbecc6490	-0.39920473
2	0x3e5741ad	0.21021147
3	0x3f17a401	0.59234625
4	0x3ef63efa	0.48094922
5	0xbe0a1b87	-0.13487063
6	0x3f1e0123	0.61720484
7	0xbec97a9d	-0.3935136
8	0x3eb11dd6	0.34593076
9	0x3eb79d4b	0.35862193
10	0xbe6a38ea	-0.22873273
11	0xbeef342e	-0.46719497
12	0x3f330ab0	0.6993818
13	0x3dd2470f	0.102674596
14	0x3a70afcf	0.0009181471
15	0x3ec9a328	0.3938229
16	0x3f049f89	0.5180593
17	0xbe32bbb5	-0.17454417
18	0x3edfcee9	0.43712547
19	0x3e7149d5	0.23563321
20	0xbe34a633	-0.17641525
21	0xbe850107	-0.25977346
22	0x3e4b1b5c	0.19834656
23	0xbe5b4826	-0.21414241
24	0x3de0b8bc	0.10972735
25	0x3ec8668b	0.39140734
26	0x3f13077b	0.5743329
27	0x3e87c9ee	0.26521248
28	0x3f0fb6a1	0.56138045
29	0x3f1322ed	0.5747517
30	0x3ea65440	0.32486153
31	0xbe2caa11	-0.1686175
32	0x3e833829	0.25628784
33	0x3f2f90f2	0.68580544
34	0x3ed0e6c5	0.40801063
35	0x3f0049b3	0.50112456
36	0xbe988a05	-0.297928
37	0xbca4fadf	-0.020139156
38	0xbe82687d	-0.25470343
39	0x3f0b2c2d	0.5436428
40	0xbe86a23a	-0.26295644
41	0x3f0430e3	0.51637095
42	0xbd80acae	-0.06282936
43	0x3d9d0444	0.07666829
44	0x3ed4b21d	0.4154214
45	0xbe1c9fc2	-0.15295318
46	0xb90ebf5c	-0.00013613462
47	0x3e72ce5b	0.23711531
48	0x3ed0bc5d	0.4076871
49	0xbec30ce7	-0.3809578
50	0xbea5b51e	-0.32364744
51	0x3f18b845	0.59656173
52	0x3f301997	0.68789047
53	0x3ef6d2e4	0.48207772
54	0xbeb109a2	-0.34577662
55	0x3e0d2d8e	0.13786909
56	0x3f23588e	0.63807
57	0xbec1038e	-0.37698025
58	0x3e553fa5	0.2082506
59	0x3eaa83be	0.33303636
60	0x3f2a2276	0.66458833
61	0x3ed857ac	0.42254388
62	0x3f2fd60a	0.6868597
63	0x3e902066	0.28149718

fc2.weight f4 [64, 64]
0	0x3cf9a09c	0.030472092
1	0xbccd8370	-0.025087088
2	0x3d61dce4	0.0551423
3	0x3e32c1a5	0.17456682
4	0xbc653ae8	-0.013991095
5	0xbe554595	-0.20827325
6	0x3e4d9780	0.20077324
7	0xbeb582cb	-0.3545135
8	0x3d953b02	0.072866455
9	0x3e0bf6c1	0.13668348
10	0xbe74ee14	-0.23918945
11	0xbda569a1	-0.08076788
12	0x3e66dc62	0.22545007
13	0xbdae22d6	-0.08502738
14	0xbe8698eb	-0.26288542
15	0x3e442871	0.19156052
16	0x3e22585f	0.15854023
17	0xbe809fc3	-0.2512189
18	0x3dd2e216	0.10297029
19	0x3d0733a8	0.033008248
20	0xbda941d9	-0.082645126
21	0xbe3db66c	-0.1852662
22	0x3e48eb28	0.19620955
23	0xbe14c237	-0.14527212
24	0x3e0f0470	0.13966537
25	0x3d7669e1	0.060159568
26	0x3e6aee1d	0.22942396
27	0x3db061b4	0.086123854
28	0x3e6218aa	0.22079721
29	0x3e4f08cd	0.20218201
30	0x3dff2fe6	0.12460308
31	0xbef93e81	-0.486805
32	0x3cee05c8	0.029055491
33	0x3bd3bfb8	0.0064620636
34	0x3ca8a71f	0.020587502
35	0x3e185ae4	0.14878422
36	0xbc93c3cd	-0.018037701
37	0x3e07dfd0	0.13268971
38	0xbea617e4	-0.32440102
39	0x3e785c03	0.2425385
40	0xbd3d4490	-0.046207964
41	0x3d073f9a	0.03301964
42	0xbb8bd6ae	-0.004267535
43	0xbd8a3cb0	-0.067498565
44	0x3e2c3787	0.16818057
45	0xbe8a3e27	-0.27000543
46	0xbdb5fdde	-0.08886312
47	0xbdc11676	-0.09428112
48	0x3de5f07a	0.11227508
49	0x3a9e9b90	0.0012100805
50	0xbdd2ec30	-0.102989554
51	0x3e2024a3	0.15638976
52	0x3dc0e5fc	0.09418866
53	0x3e010a79	0.12601651
54	0xbb480200	-0.003051877
55	0x3e66d2ce	0.22541353
56	0x3d65bd68	0.056088835
57	0xbde107be	-0.10987805
58	0x3e3c5faa	0.18395868
59	0x3d95d6c2	0.073163524
60	0x3e609ee8	0.21935618
61	0x3de0d2f7	0.10977738
62	0x3e68416a	0.22681203
63	0xbb28810e	-0.0025711688
64	0xbc7bf60a	-0.0153784845
65	0xbc337e10	-0.010955349
66	0x3dc002cd	0.09375534
67	0x3e7ae0c7	0.24499808
68	0x3c85a369	0.016313272
69	0xbe47cadf	-0.19510983
70	0x3e703e6e	0.23461315
71	0xbead5b28	-0.3385861
72	0x3e4b4a73	0.19852619
73	0x3e1676ff	0.14693831
74	0xbe1a11fd	-0.15045924
75	0xbd308e6c	-0.043104574
76	0x3e0f6c79	0.14006223
77	0xbd629df9	-0.055326436
78	0xbea0407a	-0.31299192
79	0x3e2ecf22	0.17071202
80	0x3e84a4cd	0.25906983
81	0xbe7fec55	-0.24992497
82	0x3de99bfe	0.11406706
83	0x3e2d7fb9	0.16943254
84	0x3b814892	0.0039454186
85	0xbea4b247	-0.32167265
86	0x3e44a413	0.19203214
87	0xbca8f8d3	-0.020626461
88	0x3dffaaf8	0.124837816
89	0x3dee2086	0.11627297
90	0x3dc05631	0.0939144
91	0x3e28e0a5	0.16491945
92	0x3d2b16ed	0.04176991
93	0x3e67389e	0.22580191
94	0x3d309c8f	0.043118056
95	0xbee0eb10	-0.43929338
96	0x3e4baf10	0.19891
97	0x3d9105c1	0.070811756
98	0x3ddc325d	0.107517935
99	0x3e802c08	0.25033593
100	0xbd784cc2	-0.060620077
101	0xbdbbdc4d	-0.091728784
102	0xbe5e8da9	-0.21733727
103	0x3e7efec9	0.2490188
104	0x3ddc70c8	0.10763699
105	0x3d05d9a8	0.032678276
106	0x3db077fd	0.08616636
107	0xbe1d01e7	-0.15332757
108	0x3e50376b	0.2033364
109	0xbe9afc57	-0.30270645
110	0x3dc35fc0	0.09539747
111	0xbd607b27	-0.054804947
112	0x3e777482	0.24165538
113	0x3cbae787	0.022815479
114	0xbe61f858	-0.22067392
115	0x3c910535	0.017702678
116	0x3bc540a9	0.006019671
117	0xbc987fb5	-0.018615583
118	0x3d1758e1	0.036949996
119	0x3c3e9515	0.011632224
120	0x3db94504	0.09046367
121	0xbe9d5797	-0.30730888
122	0x3e472c8e	0.1945059
123	0x3e4f3920	0.20236635
124	0x3d1a1cdc	0.03762518
125	0x3e2f4fed	0.17120333
126	0x3e7f76bc	0.24947637
127	0x3da97e07	0.08275991
128	0xbe347a2b	-0.17624728
129	0x3dad9c18	0.08477038
130	0xbdb41f54	-0.08795038
131	0xbda9b864	-0.08287123
132	0xbd3605ad	-0.044439007
133	0x3e22d8f3	0.15903072
134	0xbe11882a	-0.14212099
135	0x3e2f1012	0.17095974
136	0x3c9bcbfb	0.019018164
137	0xbeb47974	-0.3524891
138	0x3d9c94f8	0.07645601
139	0x3e85ae1e	0.26109403
140	0xbdf57908	-0.119859755
141	0x3e99e494	0.30057204
142	0x3eb4b0b8	0.35291076
143	0xbc98db97	-0.018659396
144	0x3c86d1ed	0.016457522
145	0x3e9fad49	0.31186894
146	0x3e08db60	0.13364935
147	0xbe21e0db	-0.15808432
148	0x3e191ee1	0.14953186
149	0x3e94c6bc	0.29057872
150	0xbe4c7954	-0.19968158
151	0x3dbffcdf	0.09374403
152	0xbe37da64	-0.17954403
153	0xbe15b104	-0.14618307
154	0xbe3c4212	-0.18384579
155	0x3e07af5d	0.1325049
156	0xbe90e0d3	-0.28296527
157	0x3d063a3f	0.03277039
158	0x3e0627db	0.13101141
159	0x3e42063f	0.18947695
160	0xbe8433d5	-0.25820795
161	0x3e0376d7	0.12838303
162	0xbdd20788	-0.10255343
163	0xbe58c2f5	-0.2116812
164	0x3e73c0a0	0.2380395
165	0x3c517622	0.012784513
166	0x3c9d2f29	0.019187527
167	0x3c5de5ac	0.013543528
168	0xbd934bce	-0.07192193
169	0xbbfe5e96	-0.0077627404
170	0x3d59ab4d	0.05314188
171	0x3e2923b2	0.16517523
172	0xbe00dcce	-0.1258423
173	0x3e2d9767	0.16952287
174	0x3d04fd7f	0.032468315
175	0x3e139c1b	0.14415018
176	0xbd3c2620	-0.045934796
177	0x3de4359f	0.1114304
178	0xbe0ee6f5	-0.1395529
179	0x3dc19cbe	0.09453724
180	0xbe3a28bc	-0.18179601
181	0x3d8abf8c	0.06774816
182	0xbddd83e9	-0.108161755
183	0xbe1f9f8e	-0.15588209
184	0x3cf0108c	0.029304765
185	0x3e965de5	0.2936851
186	0xbd68d4e3	-0.05684365
187	0xbdc95242	-0.098301426
188	0xbe08f089	-0.13373007
189	0xbc305f87	-0.010764963
190	0xbda8388b	-0.0821391
191	0xbe4ac043	-0.19799905
192	0xbebdab9e	-0.37044996
193	0x3d94c6e2	0.072644964
194	0xbec9942b	-0.39370856
195	0x3e051d80	0.12999535
196	0x3e1fb611	0.15596797
197	0x3ea7a39c	0.32742012
198	0xbe1dcde5	-0.15410574
199	0xbc487814	-0.01223566
200	0xbd262f7d	-0.040572632
201	0xbf0c52c0	-0.54813766
202	0x3d31253f	0.04324841
203	0x3d51f0aa	0.051254906
204	0xbda2db02	-0.07951929
205	0x3eb4b87c	0.35297
206	0x3e9c9e94	0.30589736
207	0xbae311da	-0.0017324046
208	0x3e59257b	0.21205704
209	0x3da0da21	0.07854105
210	0x3d6f8e8c	0.058485553
211	0xbeb3f571	-0.35148194
212	0xbe22ce85	-0.15899093
213	0x3e922604	0.2854463
214	0xbdcc425f	-0.09973597
215	0x3e95696f	0.29182002
216	0x3dd3f6c2	0.103498
217	0x3e17cdc8	0.14824593
218	0x3cb3ff45	0.021972308
219	0x3e1ce679	0.15322293
220	0xbdabce38	-0.083889425
221	0xbe4066f8	-0.1878928
222	0xbe331384	-0.17487913
223	0xbe44072e	-0.19143364
224	0xbe9b7ae6	-0.30367202
225	0x3d22a06c	0.03970377
226	0xbe326273	-0.17420368
227	0xbde62dd2	-0.11239208
228	0x3e34c2b0	0.17652392
229	0x3e25b8b1	0.16183735
230	0xbd636547	-0.055516507
231	0xbe3d264a	-0.18471637
232	0xbd8e9746	-0.06962447
233	0x3dc6d3fc	0.097084016
234	0x3ea6731c	0.32509696
235	0xbe647c66	-0.22313079
236	0xbea5efa4	-0.32409394
237	0xbdeaef27	-0.11471396
238	0x3e084397	0.13307033
239	0x3ddb8390	0.10718453
240	0xbe3b9bb6	-0.18321118
241	0x3e9f5ec4	0.31126988
242	0x3e3395b7	0.1753758
243	0x3de0f360	0.1098392
244	0xbd6066ea	-0.054785646
245	0xbd41fa09	-0.047357593
246	0x3e2063a8	0.15663016
247	0x3e1c38fc	0.15256113
248	0x3e01bd93	0.12669973
249	0x3e53e7c7	0.20693885
250	0xbcfb4ac5	-0.030675301
251	0xbe0f81c1	-0.14014341
252	0x3bae93f7	0.0053276974
253	0xbd76d4e7	-0.060261633
254	0xbdd03f6c	-0.10168347
255	0xbe84720d	-0.25868264

fc2.bias f4 [64]
0	0x3e84d8f0	0.2594676
1	0x3e56844d	0.20948906
2	0xbdc7f2df	-0.09763121
3	0xbd2d1eda	-0.04226575
4	0x3e52c1ef	0.20581792
5	0x3db24aff	0.087057106
6	0x3e784c40	0.24247837
7	0x3e3e2a21	0.18570758
8	0x3e112c81	0.14177133
9	0x3d3329b4	0.043740943
10	0x3df420e9	0.119203396
11	0xbd416468	-0.047214895
12	0xbdce1b76	-0.100638315
13	0x3e09c510	0.1345408
14	0x3d788cbf	0.0606811
15	0x3e84af87	0.25915167
16	0x3e8d6313	0.2761465
17	0x3e6a2582	0.2286587
18	0x3e124427	0.1428381
19	0xbd341c99	-0.043972585
20	0x3d199450	0.037494957
21	0x3d1d2f51	0.038375203
22	0x3dcf1cca	0.10112913
23	0xbde898f3	-0.11357298
24	0x3e4de3e2	0.20106462
25	0x3df2c9f7	0.11854928
26	0x3e84960d	0.2589573
27	0x3d79b5d8	0.060964435
28	0x3e11ea11	0.14249445
29	0x3e1484f9	0.1450385
30	0x3d94fb5e	0.07274507
31	0xbd02d014	-0.03193672
32	0xbdcd721b	-0.100315295
33	0x3d443e4a	0.047910966
34	0xbddce95d	-0.10786698
35	0x3e736915	0.23770554
36	0xbd7bc0f7	-0.061463322
37	0x3d5828b5	0.052773196
38	0xbdb94456	-0.09046237
39	0xbe3cae3d	-0.18425842
40	0xbdff96e9	-0.12479956
41	0x3e0fcb0d	0.14042301
42	0x3e774fc0	0.24151516
43	0x3e125596	0.14290461
44	0xbd874139	-0.06604237
45	0x3c9c64a8	0.019090965
46	0x3d2eecf2	0.042706437
47	0x3e67d360	0.22639227
48	0x3e3d7c31	0.18504407
49	0xbd32ce06	-0.04365351
50	0x3d1ecf64	0.038772
51	0xbb5a149a	-0.003327644
52	0x3e7d24f8	0.24721134
53	0x3e538f57	0.20660149
54	0x3e7cc41f	0.2468419
55	0x3d7d1f6d	0.061797548
56	0xbdb73c25	-0.089470185
57	0x3d471366	0.048602484
58	0x3dbb568c	0.09147367
59	0x3e61c868	0.22049105
60	0x3d6cf818	0.05785379
61	0xbdf08b9b	-0.11745378
62	0x3db304a6	0.08741121
63	0x3e09de75	0.13463767

fc1_policy.weight f4 [32, 64]
0	0x3df36e98	0.118863285
1	0xbc867397	-0.01641254
2	0x3eb66d7e	0.3563041
3	0xbdd0f1db	-0.1020238
4	0x3dd42fe6	0.103606984
5	0xbdc2a37e	-0.0950384
6	0x3d94b616	0.07261293
7	0xbd50cb1b	-0.050974946
8	0xbca23198	-0.019799039
9	0x3d0178f0	0.031609476
10	0xbdf10b27	-0.11769705
11	0x3d884e4d	0.0665556
12	0x3de15cee	0.11004053
13	0x3e0963dc	0.13417
14	0x3d5f79f1	0.05455965
15	0xbe00afd8	-0.12567079
16	0x3b7f2d0d	0.0038936764
17	0x3d566c20	0.05234921
18	0xbdae7a6c	-0.08519444
19	0x3da5b6de	0.0809152
20	0x3dbc7345	0.092016734
21	0x3e62fbfb	0.22166435
22	0xbb51ce5a	-0.0032013864
23	0xbdd1deb0	-0.102475524
24	0xbdb4c12f	-0.08825909
25	0x3e52fb8d	0.20603772
26	0x3d374da0	0.044751763
27	0x3c38493f	0.011247932
28	0x3dc79c58	0.09746617
29	0xbdb10db3	-0.08645191
30	0x3bcb1b97	0.0061983573
31	0xbd02b930	-0.03191489
32	0xbca26104	-0.019821651
33	0x3d5abb7c	0.053401455
34	0x3e51c745	0.20486172
35	0x3db0aa8a	0.08626278
36	0xbc8e1e58	-0.017348453
37	0x3e089528	0.13338149
38	0xbd397fa4	-0.045287743
39	0xbbe0ddb2	-0.0068623656
40	0xbda8211f	-0.08209442
41	0xbd793d25	-0.060849328
42	0xbd20aa3f	-0.03922486
43	0x3dafcd08	0.085840285
44	0xbd142442	-0.03616739
45	0xbb0561c0	-0.0020352453
46	0x3d937e04	0.0720177
47	0xbd92522c	-0.07144579
48	0x3e0bae8f	0.13640808
49	0xbeaac717	-0.33355018
50	0xbde7c3f3	-0.11316671
51	0xbe2ff67e	-0.17183873
52	0x3d0727bc	0.032996878
53	0xbd834877	-0.06410306
54	0x3dcfaa4c	0.101399034
55	0xbcb7af50	-0.022422463
56	0xbe8a02bd	-0.26955214
57	0x3e2b8f0c	0.16753787
58	0xbdee3277	-0.11630719
59	0xbd6d995e	-0.05800759
60	0xbe01dafd	-0.12681194
61	0xbddc25c0	-0.10749388
62	0xbd8c8dbd	-0.06862972
63	0xbd39b98b	-0.045342963
64	0xbcb5e6f1	-0.022204848
65	0x3e0b8f1f	0.13628815
66	0x3df6f7c8	0.12058979
67	0x3c7fb000	0.0156059265
68	0x3de69983	0.11259749
69	0xbd099d63	-0.03359736
70	0xbd9cce55	-0.07656542
71	0xbe2c81a3	-0.16846327
72	0x3db09370	0.086218715
73	0x3bd22900	0.006413579
74	0x3d84eb51	0.064901955
75	0x3d536fd7	0.05162033
76	0x3dc67cc9	0.0969177
77	0x3df8fb1a	0.12157269
78	0x3dcdc67f	0.10047626
79	0x3d94dad0	0.07268298
80	0xbd6a3900	-0.057183266
81	0x3dd44b74	0.10365954
82	0xbd86776a	-0.06565745
83	0x3e77e406	0.24208078
84	0x3d0945ea	0.03351394
85	0x3e19c0a7	0.15014897
86	0x3dbf4a04	0.09340289
87	0xbcd1df57	-0.025619192
88	0x3daf0c8e	0.085473165
89	0xbc8a4cd8	-0.016882345
90	0xbdc2c4ae	-0.0951017
91	0x3e1b9b06	0.15195855
92	0xbd8bb685	-0.06821922
93	0x3d5e5e4f	0.05428916
94	0xbb8c97bf	-0.0042905505
95	0x3ba2be60	0.004966542
96	0x3d2cd1fc	0.042192444
97	0xbdba2bd4	-0.09090391
98	0x3e7d3233	0.2472618
99	0xbd98c029	-0.07458527
100	0xbdb29c72	-0.08721246
101	0x3de11193	0.1098968
102	0x3df7dc9a	0.12102623
103	0x3dac8fc0	0.08425856
104	0xbe085833	-0.13314895
105	0xbc947ad4	-0.018124975
106	0xbde0a802	-0.10969545
107	0xbdf8f8a3	-0.12156799
108	0x3d01eebd	0.03172182
109	0xbd1ec764	-0.038764372
110	0x3dd43087	0.10360818
111	0x3b380b38	0.0028082859
112	0x3e022886	0.12710771
113	0x3cf21567	0.029551221
114	0xbdf356dd	-0.11881802
115	0xbe413354	-0.18867236
116	0x3d54d105	0.05195715
117	0x3c845995	0.016155997
118	0x3ded15ec	0.11576447
119	0xbdc077a4	-0.0939782
120	0x3d4b66d0	0.049658597
121	0x3dccf0dd	0.100068785
122	0xbdee6017	-0.116394214
123	0xbe059181	-0.13043787
124	0xbb24d0e7	-0.002514893
125	0x3da9c892	0.08290209
126	0xbd009b44	-0.031398073
127	0xbd61e7b9	-0.05515263
128	0x3dc85c16	0.09783189
129	0x3d2337d4	0.039848164
130	0xbe599795	-0.2124923
131	0x3c490fc1	0.012271822
132	0x3ddf3ff2	0.109008685
133	0x3d756be3	0.059917342
134	0x3dbcd2a0	0.09219861
135	0x3e293edb	0.16527884
136	0x3d8940b3	0.067017935
137	0x3d11b26c	0.035570547
138	0x3e045d95	0.12926324
139	0xbdea6faf	-0.11447083
140	0xbdba2f15	-0.090910114
141	0x3c24c0a5	0.010055696
142	0xbddefaa8	-0.10887653
143	0xbd93c579	-0.07215399
144	0x3d3ed17a	0.04658649
145	0x3d2573b8	0.04039356
146	0x3dbf2d0f	0.09334766
147	0xbe438bc1	-0.1909628
148	0xbe117225	-0.14203699
149	0xbe216c3f	-0.15763949
150	0xbde99781	-0.1140585
151	0xbdc8a8ca	-0.09797819
152	0xbd5997a1	-0.05312312
153	0xbdb053c7	-0.08609729
154	0x3d7b001c	0.0612794
155	0xbe079817	-0.13241611
156	0x3db748b5	0.08949415
157	0xbd88725e	-0.06662439
158	0x3d9e508b	0.07730206
159	0x3d3bf274	0.04588552
160	0xbdb4595d	-0.08806107
161	0x3dea1f81	0.1143179
162	0xbda8add9	-0.08236284
163	0x3dca5833	0.09880104
164	0x3de4e0e6	0.111757085
165	0x3cc1122b	0.023568233
166	0xbd11f1f8	-0.03563115
167	0x3de42b91	0.11141122
168	0x3e04873d	0.12942214
169	0x3e372025	0.17883356
170	0xbd7698d7	-0.060204353
171	0xbd96538b	-0.07340153
172	0x3de83170	0.113375545
173	0xbdefb486	-0.11704354
174	0x3d02f3fd	0.031970967
175	0x3df2a932	0.11848678
176	0x3dcfe9b3	0.101519965
177	0x3e102203	0.14075474
178	0x3e215fd5	0.15759213
179	0x3df4049c	0.11914942
180	0xbe06913c	-0.1314134
181	0x3d9eb261	0.07748867
182	0xbe058b2e	-0.13041374
183	0xbd50af46	-0.050948404
184	0xbd06d2e1	-0.032915954
185	0x3cc129fe	0.023579594
186	0x3d071a2a	0.032983936
187	0x3e028d9c	0.12749332
188	0xbd0a2e2e	-0.033735447
189	0x3bea1195	0.007143209
190	0x3d594a89	0.053049598
191	0xbc2953b7	-0.010334901
192	0xbdcd05c6	-0.10010867
193	0xbd82d242	-0.0638776
194	0xbc6f5ef0	-0.014610037
195	0x3c79f410	0.015255943
196	0xbdfc5464	-0.12320784
197	0xbcc00128	-0.023438051
198	0xbd978bae	-0.07399689
199	0xbdf3c620	-0.11903024
200	0x3d126f60	0.035750747
201	0xbcb6d9f0	-0.022320718
202	0xbdca1c7a	-0.09868713
203	0xbd999162	-0.07498433
204	0x3d0c5680	0.03426218
205	0x3dee122c	0.1162456
206	0x3c86a2c0	0.016435027
207	0x3dc8c4f0	0.09803188
208	0xbdd07ca8	-0.10180026
209	0x3d7dd61c	0.06197177
210	0x3c9276f8	0.017878994
211	0xbd8828ce	-0.06648408
212	0xbc8543c8	-0.016267672
213	0xbde6a86c	-0.11262593
214	0xbb817760	-0.003950998
215	0x3d34515c	0.044022903
216	0x3d6e6cfc	0.058209404
217	0x3d72dee4	0.059294596
218	0xbdf61760	-0.12016177
219	0xbdaaaa1a	-0.083332255
220	0x3d661ec4	0.056181684
221	0xbd8e1498	-0.06937522
222	0x3da269d4	0.07930341
223	0xbd85c974	-0.06532565
224	0xbd6ecd60	-0.05830133
225	0x3de2c164	0.110720426
226	0xbbcdaf80	-0.0062770247
227	0xbdd43666	-0.10361938
228	0x3db14292	0.086552754
229	0x3cc8e7a0	0.02452451
230	0xbd2a6d34	-0.04160805
231	0x3d5eafb4	0.054366782
232	0x3d71c378	0.059024304
233	0xbd81d94a	-0.06340273
234	0xbd6e2c0c	-0.058147475
235	0xbd6ceca4	-0.057842866
236	0xbd494034	-0.049133494
237	0x3ba73d80	0.005103767
238	0x3d7cb360	0.061694503
239	0x3d4f113c	0.050553545
240	0xbde7dd7c	-0.11321542
241	0x3d483598	0.048879236
242	0xbdb3425c	-0.087528914
243	0x3d9931e8	0.07480222
244	0x3d8be3fa	0.068305925
245	0x3c0b9070	0.008518323
246	0xbceafc98	-0.0286849
247	0xbda35796	-0.0797569
248	0x3c63fe00	0.013915539
249	0xbda142a8	-0.07874042
250	0xbcf11908	-0.029430881
251	0xbcd07c10	-0.025449783
252	0xbd43e054	-0.047821358
253	0xbdee7f90	-0.11645424
254	0xbd92d46a	-0.07169421
255	0xbd9edea0	-0.07757306

fc1_policy.bias f4 [32]
0	0xbd86c7e1	-0.065810926
1	0x3d9a1f65	0.07525519
2	0xbced73ed	-0.028985942
3	0xbdd22804	-0.102615386
4	0xbcadff98	-0.02124004
5	0xbd9fc3b0	-0.07800996
6	0x3d9b4929	0.075823136
7	0x3d82c059	0.06384344
8	0x3d3401ac	0.043946907
9	0x3df74744	0.1207414
10	0x3d1873aa	0.03721968
11	0x3d64dc41	0.055874113
12	0x3bb4b2c4	0.0055144746
13	0x38f346fc	0.00011600365
14	0x3ddee1c0	0.10882902
15	0x3dc0d7d9	0.0941617
16	0xbd4a0a0d	-0.04932599
17	0x3d4a675b	0.049414974
18	0x3d842c9f	0.06453823
19	0xbdaa4b0b	-0.083150946
20	0xbdc93092	-0.09823717
21	0xbdac7d52	-0.084223405
22	0xbdd275ae	-0.10276352
23	0xbd9fd215	-0.07803742
24	0x3d598824	0.05310835
25	0xbc61068b	-0.01373447
26	0x3ce168ab	0.02751573
27	0x3dd7de30	0.10540426
28	0x3d577375	0.052600343
29	0x3c97c4fd	0.018526549
30	0x3d2df1b5	0.042466838
31	0xbdb172be	-0.086644635

policy.weight f4 [2, 32]
0	0xbe09db6c	-0.13462609
1	0xbe783298	-0.2423805
2	0x3e1abff9	0.15112294
3	0xbaf25200	-0.0018487573
4	0xbd7a8230	-0.061159313
5	0xbba0db40	-0.004908949
6	0xbebb7cde	-0.36618704
7	0x3e221566	0.15828475
8	0xbe81e1fe	-0.2536773
9	0x3dbf5e85	0.093442
10	0x3d40b572	0.04704804
11	0xbda3af05	-0.07992367
12	0xbe2c868a	-0.16848198
13	0xbdd0fe83	-0.10204794
14	0xbdd96375	-0.10614673
15	0xbeae1fa8	-0.34008527
16	0xbda04171	-0.07824982
17	0x3e19f413	0.15034513
18	0x3d881111	0.0664388
19	0x3be8d7d7	0.0071058082
20	0x3d11db5c	0.035609588
21	0x3d101de6	0.035184763
22	0xbd15d0f1	-0.036576215
23	0x3e216ed0	0.15764928
24	0xbe25d357	-0.16193901
25	0xbe4296e1	-0.19002868
26	0xbe838db8	-0.2569406
27	0xbbbaf470	-0.0057054088
28	0xbe60d38f	-0.21955703
29	0x3e1b26a9	0.15151466
30	0x3dd8c0aa	0.10583623
31	0x3e4925bf	0.19643305
32	0x3e3f9928	0.18710768
33	0x3e9b43f6	0.30325288
34	0xbc4874bd	-0.012234864
35	0x3dff6fd6	0.12472503
36	0x3def0522	0.11670901
37	0x3e2c49b1	0.16824986
38	0x3e9cabe6	0.30599898
39	0xbd83d2fa	-0.06436725
40	0x3c96d50f	0.018412141
41	0xbe1106b3	-0.14162712
42	0x3dc2dc03	0.0951462
43	0x3e9aa4b0	0.30203772
44	0x3e472654	0.19448215
45	0x3ed2bd28	0.4115994
46	0x3ea6e0e0	0.3259344
47	0x3ea8e1b4	0.32984698
48	0xbc71b9b6	-0.01475375
49	0xbdd922fb	-0.10602375
50	0xbdd7b970	-0.10533416
51	0xbd2baa09	-0.041910205
52	0xbe3c1683	-0.18367963
53	0xbdcb244c	-0.099190325
54	0x3d1d1ce7	0.03835764
55	0xbd1de0c5	-0.038544435
56	0xbe101f85	-0.14074524
57	0x3e69d5ed	0.22835512
58	0x3ed1e1cf	0.4099259
59	0xbe0738c0	-0.13205242
60	0x3e971d0f	0.29514357
61	0xbe59fbb3	-0.21287422
62	0xbddcae67	-0.10775452
63	0x3d5ff298	0.054674715

policy.bias f4 [2]
0	0xbe12995e	-0.14316317
1	0xbe250a89	-0.161173

fc1_value.weight f4 [32, 64]
0	0x3e2718f4	0.16318113
1	0x3e5ca422	0.21546987
2	0xbeb8d1cf	-0.3609757
3	0xbe97c066	-0.29638976
4	0x3d969b7d	0.07353876
5	0x3e83c422	0.25735575
6	0x3e5477a3	0.20748763
7	0x3ddf0c08	0.10890967
8	0x3e368bee	0.17826816
9	0x3da80026	0.08203153
10	0x3da47b49	0.08031327
11	0xbd82f8ec	-0.06395134
12	0xbca5596e	-0.020184245
13	0x3e87f427	0.2655346
14	0x3e8e1681	0.27751544
15	0x3e7580e1	0.23974945
16	0x3e1bd79e	0.1521897
17	0x3dc416b5	0.095746435
18	0x3e3f7d08	0.1870004
19	0xbebc347f	-0.367588
20	0x3dd07816	0.101791546
21	0xbd29dcde	-0.0414704
22	0x3e51ccd3	0.2048829
23	0x3dab0aa2	0.083516374
24	0x3e5ba500	0.21449661
25	0x3da635b7	0.08115714
26	0x3e4790b6	0.19488797
27	0x3e8009dc	0.25007522
28	0x3e366c00	0.17814636
29	0x3e1d60a3	0.15368895
30	0x3ddea3bd	0.10871074
31	0xbc63ef60	-0.013912052
32	0xbe920ead	-0.28526822
33	0x3e4bc49d	0.19899221
34	0xbebc2ad9	-0.3675144
35	0x3e8c4310	0.27394915
36	0xbca3b4ac	-0.019983612
37	0x3e2e4cb4	0.17021447
38	0xbd0fbec8	-0.035094053
39	0xbe8d0fd1	-0.2755113
40	0x3c495b09	0.012289771
41	0xbc9a49aa	-0.018833954
42	0x3e538646	0.2065669
43	0x3e721340	0.23640156
44	0x3dc98e72	0.098416224
45	0x3d568650	0.052374184
46	0x3e0bcd67	0.13652574
47	0x3e9a3951	0.30121854
48	0x3ded602f	0.11590611
49	0xbe82b91a	-0.25531846
50	0x3da6aad9	0.08138055
51	0x3e9c88c0	0.30573082
52	0x3e1d8d8d	0.15386029
53	0x3e7b49e4	0.24539906
54	0x3e54b036	0.20770344
55	0xbd044c82	-0.032299526
56	0xbed801d4	-0.42188895
57	0xbe9877fc	-0.2977904
58	0x3e7f7e9c	0.24950641
59	0x3de3d766	0.11125068
60	0xbe8edac0	-0.27901268
61	0xbedf180c	-0.43573034
62	0x3e2d847e	0.16945073
63	0x3e8b2512	0.2717672
64	0x3e8bd11b	0.27307972
65	0x3e135de9	0.14391293
66	0xbea2e559	-0.31815603
67	0xbec4726f	-0.38368556
68	0x3d5497d0	0.051902592
69	0x3e72290d	0.23648472
70	0x3e40fa58	0.18845499
71	0x3e425c0c	0.18980426
72	0x3da4f998	0.08055419
73	0xbdebfab2	-0.11522426
74	0x3e622e3b	0.22087948
75	0xbd3337a0	-0.04375422
76	0xbda90fa8	-0.08254939
77	0x3e98fc01	0.29879764
78	0x3dd74506	0.10511212
79	0x3e67c94b	0.22635381
80	0x3e71ca2e	0.23612282
81	0x3da36aa7	0.07979327
82	0x3e107e81	0.14110757
83	0xbe9f47f5	-0.31109586
84	0x3e6b0c0f	0.22953819
85	0xbe4bb033	-0.19891433
86	0x3e6a4b43	0.22880273
87	0xbc7e0ffa	-0.015506739
88	0x3d59433a	0.053042628
89	0x3e61fbac	0.22068661
90	0x3e355a56	0.17710242
91	0x3e30b322	0.17255834
92	0x3e59de33	0.21276169
93	0x3e820a0c	0.2539829
94	0x3e3c44ac	0.18385571
95	0x3dd8cb54	0.10585657
96	0xbeeaa810	-0.45831347
97	0x3e8d4713	0.27593288
98	0xbe9c172b	-0.30486426
99	0x3e927f39	0.28612688
100	0xbd40d721	-0.047080163
101	0x3e5a6d94	0.21330863
102	0xbd6c1934	-0.057641223
103	0xbec4e868	-0.38458562
104	0xbd8fe5ec	-0.07026276
105	0xbe23ad27	-0.15984021
106	0x3e6f854c	0.23390692
107	0x3e3a35d3	0.18184595
108	0x3dbf2bfc	0.09334561
109	0x3d22bb68	0.039729506
110	0x3e97d7d9	0.29656866
111	0x3e8f8739	0.28032854
112	0x3e215c5d	0.1575789
113	0xbec6627f	-0.38747022
114	0x3e876e9f	0.26451585
115	0x3e8a1391	0.26968053
116	0x3e71fd70	0.23631835
117	0x3e6a3f03	0.228756
118	0x3e71308b	0.23553674
119	0xbc170f70	-0.009219989
120	0xbe83a944	-0.25715077
121	0xbec486d4	-0.38384116
122	0x3db548e6	0.08851795
123	0x3e20e4ef	0.15712331
124	0xbdeeba56	-0.116566345
125	0xbef8a0c5	-0.48560157
126	0x3e018686	0.12648973
127	0x3dd3986a	0.10331805
128	0xbdc2eec2	-0.09518196
129	0x3d8ca60f	0.06867611
130	0x3f0e4aaa	0.5558268
131	0x3eb12ef0	0.34606123
132	0x3bd52e49	0.0065057618
133	0xbe1ac4dd	-0.1511416
134	0x3dc24e1f	0.09487557
135	0x3dd4708c	0.10373029
136	0x3d86494b	0.06556948
137	0xbd9e84e2	-0.07740189
138	0xbc8a8be5	-0.01691241
139	0x3dd3826f	0.103276126
140	0xbdf032ad	-0.11728416
141	0x3c55e382	0.01305473
142	0xbe97fe32	-0.29686123
143	0xbd0e0950	-0.03467685
144	0x3d307f31	0.04309005
145	0xbdc49fba	-0.09600778
146	0x3cb1598b	0.021649143
147	0x3f164875	0.5870431
148	0xbe552ffd	-0.20819087
149	0x3ec2ce6a	0.38048106
150	0xbe30eae0	-0.17277098
151	0xbd0e2585	-0.03470375
152	0x3dc88b12	0.097921506
153	0x3d09c2e6	0.033633135
154	0x3cc7921a	0.024361659
155	0x3da2ac55	0.07943026
156	0xbdb07ce9	-0.08617575
157	0xbe0993f9	-0.13435353
158	0xbe06215c	-0.13098663
159	0x3da678be	0.081284985
160	0x3ecb1625	0.39665332
161	0x3d4d8947	0.050179746
162	0x3f14a384	0.58062005
163	0xbe45bdfb	-0.19310753
164	0xbbb01fc7	-0.005374882
165	0xbdea9a2f	-0.114551894
166	0xbd0ce6f4	-0.03439994
167	0x3e86d38c	0.26333272
168	0xbda2382b	-0.079208694
169	0x3cf5858f	0.029970912
170	0xbe023815	-0.12716706
171	0xbde04c93	-0.109521054
172	0xbd1b6fa1	-0.037948254
173	0x3da8d5aa	0.08243878
174	0xbe4251ae	-0.18976471
175	0xbd77d7b8	-0.06050846
176	0x3e1c9680	0.15291786
177	0x3e9d0f79	0.30675867
178	0xbde5e332	-0.11224975
179	0x3d4dc66c	0.050238058
180	0x3d245ba4	0.040126458
181	0xbdbb3ee2	-0.09142853
182	0xbe83a523	-0.25711927
183	0xbd60f4d4	-0.054920986
184	0x3f0958bf	0.5365104
185	0x3ece1883	0.40253076
186	0x3c9f259e	0.019427117
187	0xbbb38f23	-0.0054797097
188	0x3e39a8f6	0.1813086
189	0x3edddae6	0.4333107
190	0x3daecf9d	0.08535693
191	0x3de9d68c	0.11417875
192	0x3e1e6d94	0.15471488
193	0x3e582a00	0.21109772
194	0xbe59cae9	-0.2126881
195	0xbec910ad	-0.39270535
196	0x3e622184	0.22083098
197	0x3dbc85ca	0.09205206
198	0x3d8f2a22	0.06990458
199	0x3e1cbd53	0.15306596
200	0x3d9e056c	0.07715878
201	0xbdac8cc2	-0.08425285
202	0x3dadf89d	0.08494685
203	0xbd872d67	-0.06600457
204	0xbc94afa0	-0.01815015
205	0x3e337ddd	0.17528482
206	0x3e62c592	0.2214568
207	0x3e69ec9b	0.22844164
208	0x3e791fa4	0.24328476
209	0x3e52ce8b	0.20586602
210	0x3e094ffb	0.13409416
211	0xbec74de4	-0.38926613
212	0x3e1c21ed	0.15247317
213	0xbe59d10a	-0.21271148
214	0x3e98d02c	0.29846323
215	0xbda1ecae	-0.07906471
216	0x3e21e013	0.15808134
217	0x3e0bab45	0.13639553
218	0x3e969654	0.29411566
219	0x3e8e9fda	0.27856332
220	0x3e3b731e	0.18305632
221	0x3e80113f	0.25013158
222	0x3e8a8d43	0.270609
223	0xbca80f50	-0.020515114
224	0xbeae9098	-0.3409469
225	0x3d45e0fb	0.04831026
226	0xbede13f2	-0.43374592
227	0x3dcb5335	0.0992798
228	0x3d9aa3fa	0.07550807
229	0x3e1661bb	0.14685719
230	0xbdc334d8	-0.095315635
231	0xbead5ca2	-0.33859736
232	0xbd503867	-0.05083504
233	0xbdbe5b91	-0.09294809
234	0x3e67531a	0.22590294
235	0x3e647f3a	0.22314158
236	0xbcd3c2bd	-0.025849694
237	0xbd33fdec	-0.04394333
238	0x3dd72d81	0.10506726
239	0x3e407a85	0.18796737
240	0x3e0aea1b	0.13565867
241	0xbe941f45	-0.28930107
242	0x3d49bea1	0.049254064
243	0x3e7cc448	0.2468425
244	0x3dbb95c5	0.09159426
245	0x3e658223	0.22412924
246	0x3ea81333	0.32827148
247	0x3bd95499	0.0066323993
248	0xbee53848	-0.44769502
249	0xbe8c56d5	-0.27409998
250	0x3df937ca	0.12168844
251	0x3e6238f2	0.22092035
252	0xbe5afd97	-0.213858
253	0xbeb39088	-0.35071206
254	0x3e4c6167	0.19959031
255	0x3e5e06b8	0.2168225

fc1_value.bias f4 [32]
0	0x3db634d0	0.08896792
1	0x3e1c24ab	0.15248363
2	0xbd9a9a31	-0.07548941
3	0x3e78b311	0.24287058
4	0xbd147d48	-0.03625229
5	0x3d43e69f	0.04782736
6	0xbd0ace78	-0.03388831
7	0x3e1549cb	0.14578931
8	0x3da3b343	0.07993176
9	0x3e7f69f6	0.24942765
10	0x3e150f6a	0.14556661
11	0x3dc1f2e2	0.09470154
12	0x3e2d7c90	0.16942048
13	0x3d2087b6	0.039191924
14	0x3e87ddea	0.26536494
15	0xbdb95fe6	-0.09051494
16	0x3d55c81d	0.052192796
17	0x3dba436d	0.09094892
18	0x3e632f43	0.22185998
19	0x3d22ce5a	0.039747573
20	0x3daa44dd	0.08313916
21	0x3e662c5a	0.22477856
22	0x3d8b7cc6	0.06810908
23	0x3e3462ff	0.17615889
24	0x3cb7b9ea	0.022427518
25	0xbd155c38	-0.0364649
26	0x3de6f4e1	0.11277176
27	0x3e16716a	0.14691702
28	0x3e1765cb	0.14784925
29	0x3dce3259	0.10068197
30	0xbdf7168c	-0.12064847
31	0x3e764543	0.24049859

value.weight f4 [1, 32]
0	0x3e8ad6c5	0.2711698
1	0x3ec834d1	0.39102796
2	0xbf4afb89	-0.7929006
3	0x3e977a32	0.29585415
4	0x3db58f02	0.08865167
5	0xbf1a3394	-0.6023495
6	0x3dccdc7e	0.10002993
7	0x3e8eda6c	0.27901018
8	0x3ea9f5d3	0.33195361
9	0x3e84a398	0.25906062
10	0x3e7a0615	0.24416383
11	0x3e9a7b6a	0.30172282
12	0x3ea65919	0.3248985
13	0xbdc4ed9a	-0.096156314
14	0x3e697c6f	0.22801374
15	0x3e20abb6	0.15690503
16	0x3e6ef825	0.23336847
17	0x3ea4b30c	0.32167852
18	0x3e9bd761	0.3043776
19	0xbf2d2310	-0.67631626
20	0xbef01987	-0.46894476
21	0x3e88d005	0.26721206
22	0xbf1296dd	-0.5726145
23	0x3e81dc34	0.25363314
24	0xbf1a6b55	-0.60320026
25	0x3e1f0df9	0.15532674
26	0x3e9bc35f	0.30422494
27	0xbf2c06f9	-0.6719814
28	0x3e8eb59f	0.2787294
29	0x3ed06063	0.40698537
30	0x3cf1de70	0.029525012
31	0x3ead1d9e	0.3381166
